final-code/train-ticket-experiment/models/anti_pattern_model.pth (torch, 906066 bytes, 16 tensors)

metrics_branch.0.weight f4 [128, 12]
0.071461625 -0.14683251 0.08984148 0.09873841 0.056559503 -0.25124264 0.118381955 0.19744761
-0.03938701 -0.21580197 0.2735776 0.26987514 0.10239271 -0.10704738 -0.2639874 -0.25527105
0.16011506 -0.012170152 0.13622859 0.04262996 0.12545392 0.18841782 0.12540199 0.17191371
-0.26476136 -0.18527539 -0.15698187 -0.07200654 -0.088084765 0.17512944 0.16633457 0.15530537
-0.21565524 0.0077417074 -0.016642716 -0.15981916 -0.15723425 0.2864581 0.27170834 -0.25197232
0.13617012 0.052964803 0.2058302 0.23059882 0.2644532 0.053979214 -0.042684842 0.05828405
-0.18890072 0.07374452 -0.16898039 0.21622121 -0.09286313 0.23425281 0.110599846 -0.2643018
0.007344586 0.12938456 0.16517675 0.23162751 0.0865561 -0.112791345 0.22988196 0.14325003
-0.18220843 -0.011399681 0.11280097 0.2646559 -0.18496151 -0.21497199 -0.049109112 -0.16077611
-0.25789362 0.24123038 0.25750178 -0.17758507 -0.14177011 -0.14605863 -0.029156057 -0.081241965
0.14327581 -0.14937977 -0.034547 0.2551578 0.21588586 -0.13365696 0.27810153 -0.20432894
-0.20409508 0.095972285 0.036654525 0.09932523 0.17003901 0.11408428 -0.2571055 0.17088668
0.24484271 0.08619815 -0.18574603 -0.1658697 0.27022904 0.21616128 -0.2172329 0.20233233
0.124985315 0.19493511 -0.12738743 0.012533584 0.009674057 -0.0012375793 0.09787118 -0.24255185
0.22120473 0.13175765 -0.021908958 0.27669138 -0.16802354 0.0550262 0.050366767 -0.17004243
0.2545776 0.09310344 -0.1697492 -0.084789164 0.26696497 -0.15304685 0.17343582 -0.0054266155
0.18474767 0.23889685 0.01700346 -0.28238243 0.1697156 0.045412485 -0.16293018 0.025314102
-0.108527526 0.04741575 -0.20212415 -0.081238195 -0.23163024 0.051144052 -0.28879407 0.27074662
0.16089413 -0.20886135 -0.025678571 -0.17103145 -0.021701444 0.23562753 0.22260433 0.138424
0.09342858 -0.051568646 0.21711175 0.1541219 -0.02056477 -0.14397195 0.18268165 -0.23504443
-0.13885173 0.0769738 -0.036544923 -0.14681949 -0.05805815 0.05870127 0.021931 -0.06753744
-0.035688724 0.07243787 0.059716076 -0.013070032 0.041371696 -0.18405265 -0.21302919 0.12459794
0.1775272 -0.05193793 0.12370301 -0.13989182 0.0014346248 -0.21918826 0.18130164 0.27176335
0.023508988 -0.2621538 -0.290027 -0.18210855 0.06001523 -0.26453602 -0.2117096 -0.042339124
0.18388513 0.10660233 -0.06675783 0.059743065 -0.109565265 0.03106625 0.25306794 0.036759846
0.024082052 0.06423143 0.027177628 -0.15907341 -0.27609217 0.0673232 -0.15980037 -0.07527921
-0.2563562 0.030583145 -0.06564552 0.1874496 0.2960059 0.085890114 -0.02083889 0.06380695
-0.17178796 -0.21834594 0.20976587 0.12833643 0.08519521 0.034307256 0.09777465 -0.03703138
0.20589279 -0.18741049 -0.18275699 -0.14618218 -0.14721902 -0.15251856 0.14576612 0.04423247
-0.25415432 0.20632407 -0.15554261 0.106538065 -0.29030883 -0.053358886 -0.2751901 -0.1723267
0.007369763 -0.21817207 -0.2531345 -0.21590309 -0.03293907 0.10179187 -0.0513579 0.2064718
0.055060897 -0.19977514 -0.2705304 -0.008911292 0.25621718 0.24333847 -0.062551044 -0.0655931
00000000: 795a 923d 435b 16be cffe b73d 5d37 ca3d
00000010: f0aa 673d e0a2 80be 3d72 f23d b52f 4a3e
00000020: 4654 21bd 31fb 5cbe 5d12 8c3e 132d 8a3e
00000030: 45b3 d13d a83b dbbd 5b29 87be e3b2 82be
00000040: 34f5 233e 5165 47bc 827f 0b3e c19c 2e3d
00000050: fe76 003e 9af0 403e 6169 003e 260a 303e
00000060: cd8e 87be d5b8 3dbe dbbf 20be 2a78 93bd
00000070: c965 b4bd 2255 333e 9c53 2a3e 5f08 1f3e
00000080: bad4 5cbe 26ae fd3b 4e56 88bc a2a7 23be
00000090: 0402 21be a3aa 923e 5b1d 8b3e 8402 81be
000000a0: 2e70 0b3e 9ff1 583d 27c5 523e 1922 6c3e
000000b0: 6966 873e 4f19 5d3d 4dd6 2ebd 42bb 6e3d
000000c0: 316f 41be 5e07 973d 3209 2dbe 1869 5d3e
000000d0: 062f bebd f8df 6f3e 2c82 e23d 9152 87be
000000e0: daaa f03b 637d 043e 1824 293e c32f 6d3e
000000f0: 5344 b13d 26ff e6bd 2d66 6b3e 23b0 123e
00000100: d994 3abe bac5 3abc 3204 e73d fa80 873e
00000110: 8d66 3dbe 9e21 5cbe a326 49bd 7ea2 24be
00000120: a20a 84be 1905 773e 46d7 833e dcd8 35be
00000130: 2f2c 11be 6590 15be afd8 eebc 3062 a6bd
00000140: e5b6 123e 03f7 18be 2881 0dbd 0ba4 823e
00000150: 2f11 5d3e 5fdd 08be 5363 8e3e 9b3b 51be
00000160: 4dfe 50be 1e8d c43d 0e23 163d 076b cb3d
00000170: b51e 2e3e 05a5 e93d 55a3 83be ebfc 2e3e
00000180: 0cb8 7a3e a888 b03d 3534 3ebe bfd9 29be
00000190: 765b 8a3e 6259 5d3e 4d72 5ebe 3530 4f3e
000001a0: 4df8 ff3d 129d 473e da71 02be a959 4d3c
000001b0: f07f 1e3c 4536 a2ba af70 c83d 835f 78be
000001c0: 7e83 623e 7aeb 063e 6a7a b3bc 7eaa 8d3e
000001d0: 5d0e 2cbe 2763 613d 624d 4e3d 9a1f 2ebe
000001e0: ff57 823e 04ad be3d bcd2 2dbe f1a5 adbd
000001f0: a2af 883e 50b8 1cbe 2999 313e c0d1 b1bb
00000200: 7e2e 3d3e 60a1 743e d74a 8b3c 6e94 90be
00000210: edc9 2d3e 7102 3a3d 2bd7 26be 855f cf3c
00000220: ae43 debd 0437 423d a2f9 4ebe 3660 a6bd
00000230: 7a30 6dbe 6d7c 513d d1dc 93be 4d9f 8a3e
00000240: 6ec1 243e c0df 55be de5b d2bc de22 2fbe
00000250: 3ac7 b1bc 5848 713e 64f2 633e 05bf 0d3e
00000260: 7c57 bf3d a539 53bd 8b52 5e3e 22d2 1d3e
00000270: 7377 a8bc 626d 13be e610 3b3e 7daf 70be
00000280: 262f 0ebe 71a4 9d3d 21b0 15bd d957 16be
00000290: 62ce 6dbd be70 703d a4a8 b33c 1251 8abd
000002a0: 572e 12bd 4e5a 943d d898 743d b023 56bc
000002b0: 5e75 293d 4c78 3cbe 5324 5abe 342d ff3d
000002c0: b1c9 353e debc 54bd 0158 fd3d cd3f 0fbe
000002d0: 050a bc3a e372 60be 23a7 393e 9124 8b3e
000002e0: ec95 c03c 0639 86be 6b7e 94be aa7a 3abe
000002f0: 88d2 753d 4471 87be 67ca 58be ca6b 2dbd
00000300: 624c 3c3e 5352 da3d 54b8 88bd 25b5 743d
00000310: c163 e0bd a67e fe3c 1f92 813e 7e91 163d
00000320: b947 c53c c58b 833d 9ea3 de3c 24e4 22be
00000330: f45b 8dbe bfe0 893d b5a2 23be fd2b 9abd
00000340: 1f41 83be 8189 fa3c 2971 86bd caf2 3f3e
00000350: 168e 973e 28e7 af3d 52b6 aabc 38ad 823d
00000360: 2fe9 2fbe 1496 5fbe ddcc 563e a06a 033e
00000370: d47a ae3d c485 0c3d 133e c83d 37ae 17bd
00000380: 8fd5 523e 89e8 3fbe a624 3bbe c8b0 15be
00000390: 95c0 16be d32d 1cbe b743 153e 1b2d 353d
000003a0: 8420 82be 9e46 533e 9046 1fbe a130 da3d
000003b0: 5ca3 94be d98e 5abd b7e5 8cbe 6976 30be
000003c0: 0e7e f13b 8068 5fbe d89a 81be b315 5dbe
000003d0: 1eeb 06bd 4278 d03d a95c 52bd 586d 533e
000003e0: 8987 613d db91 4cbe f682 8abe ab00 12bc
000003f0: e62e 833e b82d 793e c31a 80bd ad55 86bd

metrics_branch.0.bias f4 [128]
0.2638671 0.20901325 -0.14704707 -0.09292684 0.10363156 -0.26839873 0.19913563 0.17792884
0.048987314 0.21443026 0.114355445 -0.2625981 0.15414299 0.1624735 0.17878745 -0.059564766
0.21437551 -0.09754609 0.17903663 -0.27473432 0.2534211 0.03092673 -0.029318593 0.2250665
-0.19072767 -0.2559286 -0.19436575 -0.045692224 -0.17909822 -0.07212565 -0.21125728 -0.17071772
0.0040558125 0.14822264 -0.06286578 -0.07825057 -0.16831867 0.23773508 -0.06988104 -0.020630194
0.22362877 0.14229326 0.19827116 -0.07728848 0.24045317 0.0003185476 -0.06639053 -0.27858332
-0.2058819 0.024669632 -0.09842629 -0.15254702 -0.008392313 -0.12437809 0.045903705 0.22015013
0.02734811 -0.2976321 0.014202115 0.06894355 0.0820688 0.22319442 -0.1755259 -0.27220368
0.22596106 0.21373437 -0.23912452 0.01517867 0.16752933 -0.22857092 0.23213977 0.028944667
0.024240911 0.18025616 0.08173481 -0.26735234 0.12308114 0.11645734 0.2148032 -0.005890203
-0.11509576 0.09568927 0.09800318 0.02655334 0.062285863 0.001654138 -0.2417973 -0.09866781
0.12463461 0.21205081 -0.11939555 -0.21997032 -0.075984895 0.22220495 -0.2325775 0.18755126
-0.062751606 -0.2755989 -0.11557421 0.21968645 -0.2004086 0.21514621 -0.23249383 0.27393076
0.0054505877 -0.07372951 -0.14209375 0.27190652 0.27961388 -0.2511929 -0.15795639 -0.21889482
-0.29181004 -0.1814502 -0.019154463 0.01602343 -0.18549751 0.25037917 0.11289782 0.11313736
-0.08639827 -0.09192588 0.12463724 -0.15435971 -0.16231793 0.08599225 0.08700805 -0.19201753
00000000: 9719 873e 9207 563e 8293 16be 6d50 bebd
00000010: c93c d43d 8f6b 89be 36ea 4b3e fa32 363e
00000020: eca6 483d 9b93 5b3e 3033 ea3d 4273 86be
00000030: a9d7 1d3e 745f 263e 0f14 373e 2ffa 73bd
00000040: 4185 5b3e 3fc6 c7bd 6155 373e faa9 8cbe
00000050: 69c0 813e 0e5a fd3c 8c2d f0bc d577 663e
00000060: 1d4e 43be 1309 83be d107 47be c527 3bbd
00000070: 8665 37be 9db6 93bd d453 58be a0d0 2ebe
00000080: 9fe6 843b adc7 173e c6bf 80bd d641 a0bd
00000090: bb5b 2cbe d370 733e ca1d 8fbd a700 a9bc
000000a0: f1fe 643e 53b5 113e 9807 4b3e 6c49 9ebd
000000b0: 5b39 763e bc02 a739 c2f7 87bd 79a2 8ebe
000000c0: b4d2 52be f817 ca3c b993 c9bd 4935 1cbe
000000d0: e97f 09bc f1b9 febd 8605 3c3d 096f 613e
000000e0: 2509 e03c 3c63 98be fdaf 683c 4732 8d3d
000000f0: b013 a83d 148d 643e 10bd 33be 485e 8bbe
00000100: 5662 673e 2fdd 5a3e 0fdd 74be f5af 783c
00000110: cf8c 2b3e 7f0e 6abe 0cb6 6d3e 5e1d ed3c
00000120: e094 c63c 1295 383e 9464 a73d 68e2 88be
00000130: f711 fc3d 3081 ee3d 5ff5 5b3e 9b02 c1bb
00000140: 53b7 ebbd bcf8 c33d e4b5 c83d 6486 d93c
00000150: 761f 7f3d a9cf d83a b699 77be 5912 cabd
00000160: 6e40 ff3d d923 593e a785 f4bd e63f 61be
00000170: f89d 9bbd b289 633e cc28 6ebe 700d 403e
00000180: ea83 80bd 4d1b 8dbe 2cb2 ecbd 7cf5 603e
00000190: e937 4dbe 4a4f 5c3e dd12 6ebe a740 8c3e
000001a0: d89a b23b 7fff 96bd 0681 11be 5537 8b3e
000001b0: 8d29 8f3e 5b9c 80be 52bf 21be f725 60be
000001c0: 2068 95be 15ce 39be d2e9 9cbc 9143 833c
000001d0: 0ff3 3dbe b331 803e f936 e73d 8fb4 e73d
000001e0: 94f1 b0bd a343 bcbd cf41 ff3d 7910 1ebe
000001f0: ac36 26be b41c b03d 4731 b23d 3ea0 44be

metrics_branch.3.weight f4 [128]
1.004006 1.0198067 0.9986199 1.0285422 1.0023888 1.001838 1.0165513 1.014665
1.0239763 1.0175936 1.0265932 1.0215957 1.0255998 1.01132 1.0215291 1.026835
0.99949 1.0054432 1.0199149 0.9987046 1.015409 1.0197161 1.0312446 1.0237678
0.99585277 1.018729 1.0200388 1.0093924 1.0244443 0.99417686 0.999464 1.0047691
1.0201569 1.0132269 0.99256825 1.0255601 1.0299174 1.0269529 0.9992357 1.0124631
1.001711 1.0006872 1.005836 1.0216184 1.0233419 1.0063487 1.0145037 0.99000204
1.0222739 1.021142 1.0274677 1.0351521 0.99683326 1.0222542 1.0118608 0.996685
1.0101196 0.9871936 1.0124716 1.0104029 0.9911946 0.99933344 1.0108124 1.0120982
1.0167209 1.0232475 1.00874 1.02824 1.0020772 1.0224955 1.0296185 0.99487424
1.0123416 1.0034553 1.0012813 1.015325 0.9930776 1.0191869 1.0022584 1.0100552
0.9983976 1.0242932 1.0258883 1.0174707 1.004198 0.9945022 1.0127834 1.0026426
1.0189081 0.9911709 1.0019544 1.0113016 1.0280666 0.9920567 1.0210619 1.0295643
1.0316775 1.0053115 1.0281312 1.0076907 0.9944312 0.99878716 0.99700874 1.0125111
1.0216225 1.0095876 1.0183876 1.0073876 1.0130562 1.0015852 1.0036899 1.0315231
0.99025446 1.0278004 1.000632 1.024961 1.0149195 1.0098225 1.0219857 1.013219
1.0136738 1.0231807 1.007773 1.0125767 1.0179638 1.0195867 1.0260811 1.0078837
00000000: 4583 803f 0789 823f 8ea5 7f3f 45a7 833f
00000010: 474e 803f 3a3c 803f 5a1e 823f 8be0 813f
00000020: a811 833f 8240 823f 6867 833f a6c3 823f
00000030: db46 833f ef72 813f 77c1 823f 546f 833f
00000040: 94de 7f3f 5db2 803f 928c 823f 1bab 7f3f
00000050: ecf8 813f 0f86 823f d3ff 833f d30a 833f
00000060: 35f0 7e3f b665 823f a290 823f c533 813f
00000070: fe20 833f 6082 7e3f dfdc 7f3f 469c 803f
00000080: 8094 823f 6bb1 813f f418 7e3f 8e45 833f
00000090: 55d4 833f 3173 833f e9cd 7f3f 6498 813f
000000a0: 1138 803f 8516 803f 3cbf 803f 64c4 823f
000000b0: defc 823f 09d0 803f 42db 813f c670 7d3f
000000c0: dfd9 823f c8b4 823f 1084 833f dd7f 843f
000000d0: 7730 7f3f 3ad9 823f a884 813f c026 7f3f
000000e0: 994b 813f b8b8 7c3f ab98 813f e254 813f
000000f0: eebe 7d3f 51d4 7f3f 4d62 813f 6f8c 813f
00000100: e923 823f c6f9 823f 641e 813f 5e9d 833f
00000110: 1144 803f 22e1 823f 8aca 833f 14b0 7e3f
00000120: 6994 813f 3971 803f fc29 803f 2bf6 813f
00000130: 553a 7e3f b774 823f 014a 803f 7d49 813f
00000140: fc96 7f3f 0a1c 833f 4f50 833f 7b3c 823f
00000150: 8f89 803f b297 7e3f e3a2 813f 9856 803f
00000160: 956b 823f 60bd 7d3f 0b40 803f 5572 813f
00000170: b097 833f 6ef7 7d3f 28b2 823f c3c8 833f
00000180: 020e 843f 0cae 803f ce99 833f 02fc 803f
00000190: 0b93 7e3f 84b0 7f3f f73b 7f3f f799 813f
000001a0: 87c4 823f 2b3a 813f 865a 823f 14f2 803f
000001b0: d3ab 813f f233 803f e978 803f f308 843f
000001c0: 5181 7d3f f78e 833f b614 803f ec31 833f
000001d0: e2e8 813f dd41 813f 6dd0 823f 29b1 813f
000001e0: 10c0 813f 96f7 823f b5fe 803f 1d9c 813f
000001f0: a34c 823f d181 823f a056 833f 5502 813f

metrics_branch.3.bias f4 [128]
-0.025091 -0.033274762 -0.031716213 -0.012056886 0.0033582412 0.029019853 -0.0042876853 -0.020194488
0.026021753 -0.0371972 -0.035689816 -0.006531518 -0.010040018 0.011034446 -0.027169915 0.016168931
-0.041607335 -0.037124757 0.026837207 -0.034282207 0.03638282 0.031271268 -0.03110459 -0.03484481
0.025856862 -0.03810841 -0.014850933 0.023526687 -0.039642688 -0.033227466 0.03799019 -0.036270693
0.029858751 0.020135619 0.03600741 0.03746827 0.035456613 0.028728085 0.00018251393 0.03735464
-0.029341608 0.036908723 -0.03047341 0.031945646 0.02797355 -0.0055513447 0.004793685 -0.027843388
0.035566714 0.01829481 -0.016167887 -0.0059804977 0.022016363 0.031904 -0.03783803 -0.02709421
0.003439758 -0.008374797 -0.019414227 -0.0061017647 0.029494036 -0.024787074 -0.035830338 -0.037129454
0.024214448 -0.037182417 -0.029843338 -0.035849284 -0.016378446 -0.00054408505 -0.03367521 -0.03522186
-0.030992841 0.017072227 -0.037807014 -0.0148855755 0.020914378 0.0054859333 -0.03721116 0.024018925
0.026631644 0.012767846 0.034236584 0.017749412 0.030032465 -0.036802992 -0.029582132 -0.0014091998
0.023933241 0.03540111 0.014170089 0.033520263 0.03679369 -0.030154752 -0.04106322 0.0010784089
-0.006156991 0.0097312685 -0.0385296 0.016503576 -0.038144413 -0.024706319 0.034678005 0.033288084
-0.028296793 -0.020539634 -0.01657407 -0.03244633 0.03917318 0.012689123 -0.021581095 0.033583596
0.03206564 0.033599436 -0.01554121 -0.02499101 0.0018083192 -0.03633043 -0.0030082688 -0.0102601005
0.025132539 0.027892686 0.015296731 0.014906381 -0.022194203 0.02467241 0.020947646 -0.030718952
00000000: a48b cdbc 1e4b 08bd dce8 01bd 3f8a 45bc
00000010: f015 5c3b 0bbb ed3c b67f 8cbb e96e a5bc
00000020: 922b d53c 175c 18bd 7c2f 12bd 5806 d6bb
00000030: e37e 24bc d2c9 343c 7193 debc b574 843c
00000040: 746c 2abd 2110 18bd b4d9 db3c 806b 0cbd
00000050: 2706 153d 4d16 003d 0ecf febc 6eb9 0ebd
00000060: c5d1 d33c 9017 1cbd 5451 73bc 0abb c03c
00000070: 5f60 22bd 8619 08bd 9a9b 1b3d 9490 14bd
00000080: 579a f43c 74f3 a43c 827c 133d 5478 193d
00000090: f43a 113d 2957 eb3c 3661 3f39 2e01 193d
000000a0: d05d f0bc 9a2d 173d 5fa3 f9bc 70d9 023d
000000b0: c928 e53c 0ee8 b5bb 5814 9d3b d117 e4bc
000000c0: 67ae 113d ffde 953c 8472 84bc 0df8 c3bb
000000d0: a95b b43c c5ad 023d 0dfc 1abd adf4 ddbc
000000e0: 906d 613b 7236 09bc 960a 9fbc 50f1 c7bb
000000f0: 7a9d f13c 430e cbbc d5c2 12bd 0e15 18bd
00000100: 615d c63c 974c 18bd 047a f4bc b3d6 12bd
00000110: 172c 86bc eea0 0eba 04ef 09bd cc44 10bd
00000120: b3e4 fdbc 0edb 8b3c 87db 1abd a1e2 73bc
00000130: a154 ab3c 58c3 b33b bb6a 18bd 56c3 c43c
00000140: 9b2a da3c 3a30 513c a93b 0c3d 3767 913c
00000150: a506 f63c bcbe 16bd 3a56 f2bc e6b4 b8ba
00000160: a50f c43c c100 113d a929 683c 8b4c 093d
00000170: fbb4 163d 1907 f7bc e831 28bd 6659 8d3a
00000180: 95c0 c9bb e66f 1f3c 37d1 1dbd 8232 873c
00000190: 513d 1cbd e864 cabc 860a 0e3d 1659 083d
000001a0: adce e7bc bc42 a8bc 58c6 87bc 71e6 04bd
000001b0: 0e74 203d 0ae6 4f3c d6ca b0bc f48e 093d
000001c0: 4357 033d 909f 093d 8fa0 7ebc f2b9 ccbc
000001d0: 2005 ed3a 38cf 14bd 6026 45bb fb19 28bc
000001e0: c1e2 cd3c 347f e43c 249f 7a3c e539 743c
000001f0: 9ed0 b5bc cb1d ca3c 669a ab3c 50a6 fbbc

metrics_branch.3.running_mean f4 [128]
0.26985452 0.30118603 0.12784079 0.27127647 0.23081888 0.04579915 0.27694064 0.25064215
0.26342088 0.34127983 0.35711372 0.123521686 0.29905957 0.23576225 0.27400774 0.25602296
0.26392028 0.058385164 0.25360054 0.2134791 0.43796778 0.16177431 0.25557348 0.3209061
0.07210874 0.07985722 0.121732615 0.12860698 0.055349592 0.0833265 0.115202524 0.13327117
0.22144632 0.3056081 0.117835015 0.25838366 0.11382194 0.32472697 0.093269125 0.08204432
0.33933824 0.6281997 0.20319057 0.25482476 0.39181992 0.21165137 0.12165107 0.027790314
0.23078415 0.30648473 0.13205831 0.3399369 0.05993977 0.11181843 0.14790866 0.40175107
0.23737842 0.019845672 0.22359166 0.24173425 0.26259074 0.37520644 0.112983406 0.08573469
0.30644318 0.3251831 0.15591922 0.12483126 0.3233621 0.11030529 0.33162412 0.13318647
0.15255666 0.26360798 0.14658996 0.078181446 0.27283722 0.15948114 0.44207236 0.122653484
0.09830733 0.2919712 0.3575239 0.33545148 0.18365678 0.12659085 0.016386513 0.311279
0.3327046 0.385496 0.10578401 0.034714293 0.11040969 0.1909751 0.07815914 0.32711756
0.1147224 0.1577754 0.16498381 0.4439592 0.11040921 0.28423378 0.058891222 0.3401618
0.21056807 0.14369728 0.08393666 0.36413002 0.42417765 0.17031567 0.04668107 0.09615812
0.02234912 0.18907318 0.09456364 0.07134635 0.17843243 0.44878548 0.17314063 0.29231685
0.22790658 0.08653494 0.25277588 0.18926644 0.1701133 0.26345935 0.2944035 0.03957261
00000000: 5f2a 8a3e 0e35 9a3e b2e8 023e c0e4 8a3e
00000010: c95b 6c3e e497 3b3d 2acb 8d3e 2b54 803e
00000020: 1adf 863e 3bbc ae3e 9cd7 b63e f0f8 fc3d
00000030: 561e 993e a96b 713e be4a 8c3e 7115 833e
00000040: 8f20 873e 4825 6f3d eed7 813e 449a 5a3e
00000050: 503d e03e 2aa8 253e 87da 823e ce4d a43e
00000060: bfad 933d 2f8c a33d f34e f93d 8cb1 033e
00000070: 41b6 623d 16a7 aa3d 4def eb3d 3d78 083e
00000080: d3c2 623e aa78 9c3e 7c53 f13d dd4a 843e
00000090: 7a1b e93d 9d42 a63e e203 bf3d da06 a83d
000000a0: bebd ad3e b2d1 203f 3011 503e 6478 823e
000000b0: 9f9c c83e 23bb 583e 3224 f93d 83a8 e33c
000000c0: ae52 6c3e 91eb 9c3e 4b3a 073e 360c ae3e
000000d0: 6783 753d 1001 e53d 5e75 173e 51b2 cd3e
000000e0: 5413 733e 6493 a23c 36f5 643e 2f89 773e
000000f0: 4b72 863e 0f1b c03e d863 e73d ab95 af3d
00000100: 1fe6 9c3e 667e a63e 4aa9 1f3e 88a7 ff3d
00000110: b88f a53e bde7 e13d a3ca a93e 0962 083e
00000120: d037 1c3e a0f7 863e ae1b 163e 981d a03d
00000130: 52b1 8b3e 064f 233e 4f57 e23e c031 fb3d
00000140: 5a55 c93d 407d 953e 5f0d b73e 4cc0 ab3e
00000150: 8610 3c3e 08a1 013e 023d 863c f65f 9f3e
00000160: 4258 aa3e bb5f c53e 49a5 d83d 9330 0e3d
00000170: 7a1e e23d fa8e 433e e611 a03d f47b a73e
00000180: 94f3 ea3d e08f 213e 84f1 283e 9f4e e33e
00000190: 391e e23d 1787 913e ec37 713d b029 ae3e
000001a0: 289f 573e 6125 133e fce6 ab3d 406f ba3e
000001b0: d02d d93e 3b67 2e3e a634 3f3d 8cee c43d
000001c0: 8015 b73c 669c 413e 95aa c13d 091e 923d
000001d0: feb6 363e 36c7 e53e c74b 313e 8eaa 953e
000001e0: 5860 693e 3b39 b13d d76b 813e 10cf 413e
000001f0: 2e32 2e3e 25e4 863e 0ebc 963e e416 223d

metrics_branch.3.running_var f4 [128]
0.1522072 0.23700751 0.0901937 0.37580237 0.3437402 0.0364424 0.18581401 0.19970107
0.21376637 0.21311322 0.45199198 0.10639381 0.22882682 0.107921705 0.12806912 0.26331878
0.21742141 0.04556662 0.1514994 0.18159479 0.39063063 0.083170906 0.1966062 0.39340696
0.03968199 0.07191321 0.14255741 0.10072683 0.038944047 0.06253917 0.10354884 0.10347547
0.18379565 0.4524148 0.06086291 0.25727862 0.13267899 0.2873267 0.100645475 0.032509
0.20096292 0.8412572 0.1446119 0.24036223 0.41496235 0.13614427 0.14879143 0.019092765
0.20337112 0.37426433 0.18009114 0.4752387 0.027267372 0.098053664 0.05451737 0.4063005
0.19301905 0.021276088 0.15431748 0.1343062 0.22024862 0.24755158 0.09169105 0.23303601
0.28788733 0.21447366 0.12517901 0.062561475 0.16899268 0.06113409 0.19621436 0.07653367
0.07750615 0.17343384 0.09938039 0.09419964 0.29048595 0.08351917 0.23844332 0.07608167
0.06751777 0.17957424 0.3117351 0.2614743 0.10718659 0.057857957 0.018051805 0.34931222
0.37354478 0.44437328 0.061409246 0.025366744 0.054997742 0.070630275 0.06857521 0.24547072
0.12277219 0.21485373 0.13932331 0.48171973 0.05709278 0.11175611 0.05134978 0.20140272
0.12973191 0.14850567 0.041664537 0.16272381 0.29055464 0.14859217 0.058621947 0.052011818
0.025424832 0.12523304 0.056589454 0.05219298 0.16435798 0.41367617 0.10212924 0.4918508
0.20151389 0.042008463 0.14349155 0.17244183 0.14414077 0.31014746 0.2663562 0.042911973
00000000: 34dc 1b3e 19b2 723e 79b7 b83d 2b69 c03e
00000010: b7fe af3e a044 153d 0746 3e3e 707e 4c3e
00000020: 92e5 5a3e 5a3a 5a3e 7e6b e73e ffe4 d93d
00000030: 9451 6a3e 0e06 dd3d 8d24 033e b8d1 863e
00000040: b8a3 5e3e 10a4 3a3d a922 1b3e fcf3 393e
00000050: bd00 c83e 8255 aa3d 2353 493e a36c c93e
00000060: 9589 223d 3c47 933d 92fa 113e de49 ce3d
00000070: cb83 1f3d 8914 803d 6a11 d43d f2ea d33d
00000080: ed34 3c3e eaa2 e73e 634b 793d 06ba 833e
00000090: 00dd 073e 7c1c 933e 371f ce3d 2828 053d
000000a0: 39c9 4d3e a25c 573f 2415 143e 8421 763e
000000b0: f275 d43e 6769 0b3e c85c 183e 6e68 9c3c
000000c0: 8540 503e 939f bf3e d069 383e 7d52 f33e
000000d0: d35f df3c 5cd0 c83d 9b4d 5f3d 9e06 d03e
000000e0: c9a6 453e 314b ae3c 6705 1e3e 9187 093e
000000f0: db88 613e 297e 7d3e 84c8 bb3d fea0 6e3e
00000100: f865 933e fc9e 5b3e ed2e 003e 3b20 803d
00000110: 6b0c 2d3e bd67 7a3d 6bec 483e afbd 9c3d
00000120: 8bbb 9e3d a498 313e f287 cb3d beeb c03d
00000130: 93ba 943e 190c ab3d 7c2a 743e b5d0 9b3d
00000140: c246 8a3d 4fe2 373e be9b 9f3e f6df 853e
00000150: a584 db3d 77fc 6c3d 61e1 933c 0dd9 b23e
00000160: 4341 bf3e e584 e33e 4388 7b3d ebcd cf3c
00000170: 5045 613d 9ba6 903d 2971 8c3d ad5c 7b3e
00000180: fc6f fb3d 9e02 5c3e c5aa 0e3e f8a3 f63e
00000190: 1eda 693d 63e0 e43d 2654 523d 843c 4e3e
000001a0: 71d8 043e df11 183e 6fa8 2a3d 12a1 263e
000001b0: 94c3 943e 8c28 183e 911d 703d 580a 553d
000001c0: bd47 d03c 173d 003e 58ca 673d 4ec8 553d
000001d0: 754d 283e 5dcd d33e 2329 d13d ded3 fb3e
000001e0: a859 4e3e 1111 2c3d 73ef 123e 9794 303e
000001f0: a399 133e a6cb 9e3e d75f 883e 77c4 2f3d

emb_branch.0.weight f4 [256, 768]
-0.011317581 0.011744004 -0.0031679198 0.018797968 -0.017408002 0.035917968 -0.03441178 0.02011577
-0.022436295 0.032840915 0.016748782 -0.007199846 0.033101685 0.0073455907 -0.018420916 0.0024083108
0.020068482 0.0132707395 -0.03420176 -0.028955182 -0.0016078725 -0.032566417 0.028559856 -0.03237619
0.027150624 0.029888518 -0.0006624162 0.028969213 -0.03584749 0.009958725 0.02450889 0.003269352
0.01626322 0.021594394 0.005921643 -0.018032113 0.008669831 -0.014280073 -0.009288618 0.029682621
0.008209158 -0.019581143 0.0008746125 0.030218206 -0.018391566 0.013713174 -0.00041322038 0.02690655
0.028138496 -0.031657584 0.007153552 -0.017446116 0.016301632 -0.009643551 0.02630851 0.011141378
-0.032543816 0.031974614 0.00770415 -0.0028229356 -0.024544409 -0.015807224 0.0152228065 0.03485266
-0.03526383 0.020536777 0.030898102 0.03369403 -0.022137295 -0.009601718 -0.026527911 0.00403234
0.014027368 0.030535541 -0.02709288 -0.027901184 0.005136654 0.0112866685 0.025311865 -0.0073697492
0.0013573654 -0.012116374 0.03595452 -0.001657635 0.034135737 0.010451488 0.030690506 0.019477896
-0.0015064664 0.026291437 0.02537271 -0.01269866 0.0051564723 0.016138773 0.012442652 -0.0023830421
0.0058465973 0.0119684115 -0.0018085316 -0.0027807616 0.035186462 -0.026117338 -0.00043367222 -0.0048816297
0.034673996 -0.015994051 0.01889915 -0.0073904786 -0.016752703 0.030392818 0.020751923 0.009457633
0.018733978 0.026376095 0.030653492 0.029805206 0.033314124 -0.0062902477 0.025772024 -0.016360357
0.024215605 -0.019358827 0.010616869 -0.01322373 -0.029914068 -0.00019967929 0.002521146 -0.008202517
0.014953334 0.00800449 0.032272212 -0.0007925257 -0.001728192 0.0024721138 -0.03282053 -0.015860612
0.003311295 -0.01385803 -0.023956647 0.0064452514 0.017065734 -0.008005358 -0.03069885 0.004392747
0.005324539 0.0055558495 0.008282125 -0.022389947 0.018469915 -0.032312628 -0.024428744 0.024950836
-0.0293184 -0.021332946 -0.027159993 -0.032347932 1.4394522e-05 -0.020596705 0.03397063 0.025684234
0.023809738 0.02338864 0.028007776 0.0076456033 0.00032041594 -0.012772059 0.0154180415 -0.008551678
0.023561683 -0.031899825 0.016571548 -0.01067497 0.034356765 -0.03177227 0.024501108 0.02011409
0.03235338 -0.023854915 0.011296704 0.020932287 0.028368846 -0.029475292 -0.0122278 0.03225802
-0.019225389 -0.011440869 0.0100085065 0.014781944 0.028668657 -0.03201074 0.018406585 -0.03195453
0.017955698 -0.00032215565 0.014701281 0.02344073 -0.009638768 -0.027467854 -0.011621546 0.016403519
0.032646723 -0.02584821 0.013027482 0.03513135 -0.0017335713 -0.023197133 0.012976479 0.0300638
0.0008374676 0.032713436 -0.034466613 -0.008243749 -0.018608475 -0.027719773 0.029966086 -0.008171679
-0.004159134 -0.012104532 -0.03127599 0.029573575 -0.014720827 -0.027992932 -0.0041144453 0.009490646
0.015138138 -0.027535569 0.017195206 0.03056088 -0.03375214 0.0021005906 0.0056927167 0.018521987
1.4826655e-06 0.0029365271 0.015441932 0.020588432 -0.027196458 0.029770754 0.03221537 0.013162605
-0.023937058 0.013083 0.03460248 0.028322577 -0.0051076356 -0.008865548 0.008340944 0.016323436
-0.02960123 0.004495226 -0.024981279 -0.005927976 0.00092993304 0.025689684 -0.023687225 -0.007812621
00000000: 606d 39bc ec69 403c e09c 4fbb 32fe 993c
00000010: 3a9b 8ebc b81e 133d 5ef3 0cbd d4c9 a43c
00000020: 52cc b7bc 3284 063d be34 893c b0ec ebbb
00000030: a295 073d 48b3 f03b 76e7 96bc c0d4 1d3b
00000040: a866 a43c 846d 593c 2517 0cbd 6b33 edbc
00000050: 40bf d2ba 5d64 05bd 5cf6 e93c e59c 04bd
00000060: fc6a de3c c4d8 f43c 00a6 2dba d850 ed3c
00000070: d1d4 12bd ec29 233c dec6 c83c a042 563b
00000080: 723a 853c bae6 b03c 580a c23b 15b8 93bc
00000090: e80b 0e3c f8f6 69bc 4a2f 18bc f828 f33c
000000a0: b47f 063c a268 a0bc 4046 653a 2c8c f73c
000000b0: e9a9 96bc 38ad 603c 80a5 d8b9 206b dc3c
000000c0: b482 e63c 62ab 01bd 5868 ea3b 28eb 8ebc
000000d0: 008b 853c fcff 1dbc f284 d73c 548a 363c
000000e0: aa4c 05bd d0f7 023d 1873 fc3b 0001 39bb
000000f0: 5b11 c9bc 277e 81bc 1469 793c aac1 0e3d
00000100: ce70 10bd be3c a83c 041e fd3c c002 0a3d
00000110: 4659 b5bc 8650 1dbc 1051 d9bc b821 843b
00000120: 0cd3 653c ac25 fa3c e3f1 ddbc 0691 e4bc
00000130: 6051 a83b b8eb 383c d45a cf3c f07d f1bb
00000140: a0e9 b13a c283 46bc 0c45 133d 0045 d9ba
00000150: ead1 0b3d b83c 2b3c a86a fb3c 1c90 9f3c
00000160: a074 c5ba 2461 d73c 6eda cf3c 0a0e 50bc
00000170: a0f7 a83b 7635 843c 44dc 4b3c d02c 1cbb
00000180: d094 bf3b 2817 443c 400c edba 703d 36bb
00000190: ae1f 103d 07f4 d5bc 805e e3b9 14f6 9fbb
000001a0: 5206 0e3d f505 83bc 64d2 9a3c d42b f2bb
000001b0: f73c 89bc 5cfa f83c f0ff a93c 30f4 1a3c
000001c0: 0078 993c ae12 d83c 081d fb3c 0c2a f43c
000001d0: 6474 083d 6c1e cebb da1f d33c 2806 86bc
000001e0: ce5f c63c 6796 9ebc 60f2 2d3c 58a8 58bc
000001f0: 590e f5bc 0061 51b9 d039 253b da63 06bc
00000200: d4fe 743c 4425 033c de2f 043d 80c1 4fba
00000210: 8084 e2ba 3003 223b d26e 06bd 1dee 81bc
00000220: 5002 593b ca0c 63bc bb40 c4bc b032 d33b
00000230: 70cd 8b3c e828 03bc 287c fbbc 08f1 8f3b
00000240: 7879 ae3b d80d b63b c0b1 073c 1f6b b7bc
00000250: 384e 973c 3f5a 04bd ca1e c8bc b265 cc3c
00000260: 242d f0bc 6ec2 aebc a27e debc 447f 04bd
00000270: 0080 7137 6cba a8bc ca24 0b3d be67 d23c
00000280: a40c c33c 8899 bf3c 9070 e53c f887 fa3b
00000290: 80fd a739 e641 51bc f49b 7c3c 561c 0cbc
000002a0: 6e04 c13c 64a9 02bd 0ec1 873c 12e6 2ebc
000002b0: aeb9 0c3d a423 02bd 8cb6 c83c 4ec6 a43c
000002c0: fa84 043d 626b c3bc d015 393c 307a ab3c
000002d0: c865 e83c 2b76 f1bc 1c57 48bc fc20 043d
000002e0: 907e 9dbc 7c72 3bbc b8fa 233c f82f 723c
000002f0: 88da ea3c b21d 03bd 68c9 963c c1e2 02bd
00000300: d417 933c 00e7 a8b9 a4dd 703c c606 c03c
00000310: eceb 1dbc 4404 e1bc 4c68 3ebc ac60 863c
00000320: 92b8 053d a0bf d3bc 3871 553c e4e5 0f3d
00000330: 0039 e3ba ea07 bebc 4c9b 543c 5c48 f63c
00000340: 8089 5b3a 86fe 053d dd2c 0dbd ca10 07bc
00000350: cd70 98bc 9414 e3bc 707b f53c 82e2 05bc
00000360: 5849 88bb 1652 46bc 411b 00bd 4844 f23c
00000370: a02f 71bc 6f51 e5bc 78d2 86bb a87e 1b3c
00000380: f405 783c 4692 e1bc f6dc 8c3c d05a fa3c
00000390: af3f 0abd 10aa 093b f889 ba3b 6cbb 973c
000003a0: 0000 c735 c072 403b 2800 7d3c 12a9 a83c
000003b0: 1bcb debc cce1 f33c 44f4 033d f8a7 573c
000003c0: a617 c4bc 145a 563c 54bb 0d3d c004 e83c
000003d0: f45d a7bb ce40 11bc 74a8 083c bab8 853c
000003e0: 477e f2bc b04c 933b 8aa5 ccbc 783f c2bb
000003f0: c0c6 733a 2c73 d23c b60b c2bc 8200 00bc

emb_branch.0.bias f4 [256]
-0.005296292 0.032026 -0.03089852 -0.014978457 -0.011926232 -0.0005356652 0.017054563 -0.024935834
0.00036656752 -0.009408981 0.013345916 -0.026043339 0.020475358 -0.012582655 0.019414496 -0.014677674
0.01383127 -0.023900185 -0.0006292723 0.023911508 0.01618783 -0.02854754 0.0045022573 -0.013433136
-0.00491806 -0.015074758 -0.023283027 -0.030454228 -0.023313567 0.022592895 -0.007898558 0.016153416
-0.0015358403 -0.012929958 0.01095117 0.030281886 -0.013722386 -0.012533354 -0.016839009 0.036990173
-0.022247193 -0.0002540797 -0.017182784 -0.001957681 0.02035467 -0.04211404 -0.03880741 0.02562391
0.033359833 0.015909584 0.008285168 -0.012331292 -0.01291789 0.02276885 -0.027683772 -0.033828303
0.02399657 -0.014879288 -0.023041803 0.03269235 0.008154194 0.02675975 -0.020324063 -0.026386054
0.033811837 0.00556699 -0.009498765 -0.0040168986 -0.020347811 -0.004903281 0.0061498443 0.00070641935
0.0005348122 -0.021799192 0.015615719 -0.018935367 -0.0051713213 0.019249024 -0.007113671 -0.033076797
0.039454423 -0.029323936 0.009372652 0.02289732 -0.010638489 0.013773672 -0.038888764 0.0014817589
-0.0166808 -0.014234114 -0.010517518 0.0106065925 -0.0217583 -0.022798564 -0.031060334 -0.008738803
0.006312766 0.023577152 0.02485451 -0.0026071512 -0.02426758 0.019484188 0.04360916 -0.0029141977
0.007888656 -0.019305952 -0.012099959 -0.017170845 0.035263836 -0.013210622 0.01661554 -0.013998345
-0.011515981 0.010835003 -0.020918548 -0.007902369 -0.019504828 0.0100472225 -0.01902939 -0.030355101
-0.0069570057 -0.022882137 -0.010507959 0.0183569 0.020032622 -0.040612575 0.009205876 -0.002835937
0.0288966 0.007171072 -0.0068151318 -0.04036376 0.0370406 -0.03359917 0.016577385 0.02566224
0.025542405 0.0015276596 -0.0006682612 0.016422266 0.026990712 -0.020850705 0.0038613782 -0.003502693
0.02732163 0.0062630298 -0.033211313 -0.011731099 -0.019806542 -0.029667802 0.015745364 -0.036554888
-0.040182266 0.021990452 0.033680946 0.010595242 -0.014561107 0.011798155 0.0017283502 -0.035537705
0.012060069 0.0040768054 0.012969919 -0.027861416 0.0002899021 0.027352108 -0.010772369 0.018044362
-0.033998393 0.018300554 -0.03339734 0.04051532 -0.027878212 0.023993414 0.010893122 0.024668545
0.0039875433 0.012038618 0.015927117 -0.0022921287 0.0031193558 0.00032798722 0.033598505 0.025727363
0.007999849 0.01907456 -0.018656744 -0.018704044 -0.021084834 0.018240407 -0.010685677 0.015213725
-0.016789133 -0.03046269 0.010980565 0.02531855 -0.018124377 -0.015311244 -0.016872 0.024081383
-0.0059277993 0.0010649485 0.018828165 0.008220892 0.0065621734 -0.027724113 0.0001829043 -0.019854091
-0.033978228 -0.028903881 0.008562081 0.03273294 -0.029278725 0.026751958 0.011483215 -0.0311284
0.03066574 0.009079084 0.028435398 0.011243062 -0.02449839 -0.014814498 -0.027720619 0.02007896
-0.024408523 -0.0039286017 0.018854305 0.016143195 0.0016383231 0.009704242 -0.016348585 0.0030196533
-0.027809862 0.013002753 -0.03435608 -0.029629279 -0.03451581 0.03214643 -0.002519302 0.004210349
-0.00872103 0.024852866 0.017076211 -0.0064413655 0.023095172 0.028580584 0.03260164 0.031107012
0.016685609 0.030429594 -0.0074189007 -0.028023498 0.03725962 0.00999807 0.008884205 0.0035764687
00000000: 848c adbb b22d 033d e51e fdbc 3468 75bc
00000010: 3e66 43bc e26b 0cba 03b6 8b3c 3c46 ccbc
00000020: dc2f c039 2028 1abc d4a8 5a3c d758 d5bc
00000030: f0bb a73c 7b27 4ebc 260b 9f3c a07a 70bc
00000040: 8d9c 623c 52ca c3bc c0f5 24ba 11e2 c33c
00000050: 579c 843c 88dc e9bc ac87 933b a816 5cbc
00000060: ad27 a1bb 1efc 76bc 0cbc bebc 257b f9bc
00000070: 18fc bebc bc14 b93c f468 01bc 2b54 843c
00000080: 404e c9ba 2dd8 53bc 896c 333c b811 f83c
00000090: dcd3 60bc b258 4dbc f6f1 89bc 0283 173d
000000a0: bf3f b6bc 0036 85b9 e9c2 8cbc 704c 00bb
000000b0: d6be a63c c67f 2cbd 85f4 1ebd 3ce9 d13c
000000c0: 52a4 083d d154 823c 83be 073c 3009 4abc
000000d0: 8fa5 53bc bd85 ba3c 14c9 e2bc 8c8f 0abd
000000e0: 7494 c43c 42c8 73bc 2ac2 bcbc 6ae8 053d
000000f0: 2b99 053c 4337 db3c a67e a6bc 9127 d8bc
00000100: 487e 0a3d 4c6b b63b b5a0 1bbc 30a0 83bb
00000110: 74b0 a6bc b4ab a0bb a284 c93b 002f 393a
00000120: a432 0c3a 3894 b2bc 13d9 7f3c 581e 9bbc
00000130: 3074 a9bb 21b0 9d3c cc19 e9bb 897b 07bd
00000140: f69a 213d c038 f0bc c08f 193c 2993 bb3c
00000150: 0f4d 2ebc f8aa 613c d349 1fbd 9437 c23a
00000160: 2ca6 88bc 3436 69bc ab51 2cbc 46c7 2d3c
00000170: 763e b2bc 0ec4 babc 3e72 febc 322d 0fbc
00000180: 52db ce3b df24 c13c af9b cb3c bddc 2abb
00000190: cecc c6bc 4e9d 9f3c 859f 323d 20fc 3ebb
000001a0: 6c3f 013c 8427 9ebc e83e 46bc dfa9 8cbc
000001b0: d070 103d 5d71 58bc 501d 883c 5059 65bc
000001c0: 86ad 3cbc 4c85 313c 605d abbc f078 01bc
000001d0: 97c8 9fbc 1b9d 243c 86e3 9bbc 43ab f8bc
000001e0: 98f7 e3bb 5273 bbbc 9329 2cbc 3661 963c
000001f0: 741b a43c 5f59 26bd 3ed4 163c 21db 39bb
00000200: 90b8 ec3c 50fb ea3b 7851 dfbb 7854 25bd
00000210: e2b7 173d 499f 09bd 4ccd 873c 9e39 d23c
00000220: 4e3e d13c c03b c83a 402e 2fba fd87 863c
00000230: a01b dd3c 19cf aabc 2d0f 7d3b 708d 65bb
00000240: 9cd1 df3c 1a3a cd3b 9608 08bd cc33 40bc
00000250: 5441 a2bc e409 f3bc 6cfc 803c 94ba 15bd
00000260: 2996 24bd 5225 b43c 08f5 093d aa97 2d3c
00000270: b691 6ebc 0c4d 413c cf89 e23a fc8f 11bd
00000280: 9897 453c b996 853b c87f 543c a03d e4bc
00000290: 00fe 9739 8711 e03c 977e 30bc c5d1 933c
000002a0: e641 0bbd 0beb 953c a6cb 08bd 64f3 253d
000002b0: d960 e4bc d68d c43c 1179 323c b015 ca3c
000002c0: f0a9 823b a03d 453c 9679 823c 8a37 16bb
000002d0: 1b6e 4c3b b3f5 ab39 969e 093d 31c2 d23c
000002e0: cc11 033c 4042 9c3c 07d6 98bc 3939 99bc
000002f0: 1aba acbc e86c 953c fa12 2fbc fd42 793c
00000300: 5d89 89bc e48c f9bc d4e7 333c d968 cf3c
00000310: 9379 94bc 03dc 7abc 2637 8abc 5246 c53c
00000320: fc3d c2bb be95 8b3a 863d 9a3c ecb0 063c
00000330: 8007 d73b ae1d e3bc 00ca 3f39 0ca5 a2bc
00000340: c12c 0bbd d5c7 ecbc f847 0c3c fa12 063d
00000350: f0d9 efbc ec26 db3c 1824 3c3c fc00 ffbc
00000360: b836 fb3c 70c0 143c 5af1 e83c d234 383c
00000370: d9b0 c8bc 82b8 72bc 5a16 e3bc a27c a43c
00000380: 62f4 c7bc 80bb 80bb 5874 9a3c bc3e 843c
00000390: 00bd d63a 8bfe 1e3c 78ed 85bc 60e5 453b
000003a0: 82d1 e3bc 8009 553c f6b8 0cbd 1ab9 f2bc
000003b0: 7360 0dbd faab 033d e01a 25bb f8f6 893b
000003c0: a7e2 0ebc 3d98 cb3c 69e3 8b3c 1712 d3bb
000003d0: 1632 bd3c d421 ea3c 4c89 053d 22d4 fe3c
000003e0: 42b0 883c 7c47 f93c 401a f3bb 8991 e5bc
000003f0: 8b9d 183d f2ce 233c 0e8f 113c 3063 6a3b

emb_branch.3.weight f4 [256]
1.0 1.0 1.0102631 1.0 1.0 0.9963192 1.0150218 0.99996704
0.999774 1.0 1.0 1.0138621 1.0 0.9941007 1.0 1.0
1.005899 1.0008324 1.0 0.9989162 1.0098939 1.0 1.0043416 1.0
1.005899 1.0 1.0071825 1.0017879 0.99410063 1.005899 1.0 1.0051298
1.0 1.0090544 1.0069919 1.0 0.9920614 1.0 1.0 1.0045033
1.0060478 1.0 1.0 1.0 1.0 0.99603003 0.9949173 1.0014797
1.0 1.003115 1.0041983 1.0007752 1.0181091 0.9953466 1.0 0.9941007
1.0 1.0 1.0059228 1.0 1.0069469 0.99410087 1.0 1.0
1.0116706 0.9950546 1.0023646 1.0074328 1.0 1.0 0.9941007 1.0
0.9996967 1.0 0.98690563 1.0236056 1.0 1.0063331 0.9941008 1.0
1.020728 0.997465 0.99410105 1.002717 0.9941006 1.0 0.99410164 0.9983501
1.0042382 1.0 0.99410087 0.99848527 1.0 1.0 1.0 1.0101274
1.0058842 1.0034345 1.0100935 1.003265 0.9941085 1.0 0.9958069 1.0
1.0 1.0 0.9958392 1.0062218 1.0 1.0058991 1.0 1.0
0.9896537 1.0 1.0 1.0 1.0 1.0092895 1.0 0.9916812
0.9986075 1.0025384 1.0033325 1.0 1.0045487 0.9941006 1.0118357 0.99882925
1.0 1.0 1.0 0.9945604 1.0063282 1.0 1.0 1.0
1.0 1.0 1.0 1.004001 1.0 1.0066924 0.9941006 1.0
1.0 1.0039879 1.0 0.9945145 1.0 1.0 1.0 1.0058991
0.9962147 1.0058991 1.0 0.9941006 1.0105886 0.9922425 0.99515283 0.9941006
1.0 0.99668396 1.0 1.0077152 1.0 0.9978297 0.9951045 0.9967212
1.0 1.0129292 1.0 1.0028106 0.9970731 1.0 0.9917599 1.0
1.0 1.0 1.0137995 1.009363 1.0095521 0.9944979 1.0 0.99136305
1.0 1.0072763 1.0 1.0 1.0 1.0 1.0 0.99562746
1.0037256 1.0 1.0 0.99298805 1.0 0.9941011 0.99734896 1.0013614
1.0 0.99751246 1.0 0.9937096 1.0 1.0 1.0 1.0
0.9941011 1.0063562 1.0 1.0 0.9993077 1.0 1.0 1.0
1.0050327 1.0 0.9880759 0.9882717 1.0 1.0052781 1.0 1.0022864
1.0065354 1.0 1.0 1.0 1.0 1.0058987 0.99517345 1.0072603
1.0 1.0 1.0 0.9970204 1.0089504 1.0113868 1.0 1.0
1.0017002 0.9985118 1.0156462 0.99193865 1.0 1.0 1.0 1.0133106
1.0 1.0 1.0 1.007397 1.017297 1.0058991 1.0009289 1.0
00000000: 0000 803f 0000 803f 4d50 813f 0000 803f
00000010: 0000 803f c60e 7f3f 3cec 813f d7fd 7f3f
00000020: 30f1 7f3f 0000 803f 0000 803f 3cc6 813f
00000030: 0000 803f 627d 7e3f 0000 803f 0000 803f
00000040: 4cc1 803f 471b 803f 0000 803f f9b8 7f3f
00000050: 3444 813f 0000 803f 448e 803f 0000 803f
00000060: 4cc1 803f 0000 803f 5beb 803f 963a 803f
00000070: 617d 7e3f 4cc1 803f 0000 803f 18a8 803f
00000080: 0000 803f b228 813f 1ce5 803f 0000 803f
00000090: bcf7 7d3f 0000 803f 0000 803f 9093 803f
000000a0: 2dc6 803f 0000 803f 0000 803f 0000 803f
000000b0: 0000 803f d3fb 7e3f e6b2 7e3f 7d30 803f
000000c0: 0000 803f 1366 803f 9289 803f 6719 803f
000000d0: 6651 823f 09cf 7e3f 0000 803f 627d 7e3f
000000e0: 0000 803f 0000 803f 14c2 803f 0000 803f
000000f0: a3e3 803f 657d 7e3f 0000 803f 0000 803f
00000100: 6c7e 813f e6bb 7e3f 7c4d 803f 8ff3 803f
00000110: 0000 803f 0000 803f 627d 7e3f 0000 803f
00000120: 1fec 7f3f 0000 803f d9a5 7c3f 8205 833f
00000130: 0000 803f 86cf 803f 647d 7e3f 0000 803f
00000140: 37a7 823f de59 7f3f 687d 7e3f 0859 803f
00000150: 607d 7e3f 0000 803f 727d 7e3f df93 7f3f
00000160: e18a 803f 0000 803f 657d 7e3f bb9c 7f3f
00000170: 0000 803f 0000 803f 0000 803f db4b 813f
00000180: d0c0 803f 8b70 803f be4a 813f fd6a 803f
00000190: e57d 7e3f 0000 803f 33ed 7e3f 0000 803f
000001a0: 0000 803f 0000 803f 51ef 7e3f e0cb 803f
000001b0: 0000 803f 4dc1 803f 0000 803f 0000 803f
000001c0: f259 7d3f 0000 803f 0000 803f 0000 803f
000001d0: 0000 803f 6630 813f 0000 803f d2de 7d3f
000001e0: bea4 7f3f 2e53 803f 336d 803f 0000 803f
000001f0: 0d95 803f 607d 7e3f d583 813f 46b3 7f3f
00000200: 0000 803f 0000 803f 0000 803f 839b 7e3f
00000210: 5dcf 803f 0000 803f 0000 803f 0000 803f
00000220: 0000 803f 0000 803f 0000 803f 1b83 803f
00000230: 0000 803f 4cdb 803f 607d 7e3f 0000 803f
00000240: 0000 803f ad82 803f 0000 803f 8198 7e3f
00000250: 0000 803f 0000 803f 0000 803f 4dc1 803f
00000260: ed07 7f3f 4dc1 803f 0000 803f 607d 7e3f
00000270: f85a 813f 9b03 7e3f 56c2 7e3f 607d 7e3f
00000280: 0000 803f ae26 7f3f 0000 803f d0fc 803f
00000290: 0000 803f c471 7f3f 2bbf 7e3f 1f29 7f3f
000002a0: 0000 803f aaa7 813f 0000 803f 195c 803f
000002b0: 2f40 7f3f 0000 803f fae3 7d3f 0000 803f
000002c0: 0000 803f 0000 803f 2fc4 813f cf32 813f
000002d0: 0139 813f 6a97 7e3f 0000 803f f8c9 7d3f
000002e0: 0000 803f 6eee 803f 0000 803f 0000 803f
000002f0: 0000 803f 0000 803f 0000 803f 71e1 7e3f
00000300: 157a 803f 0000 803f 0000 803f 7734 7e3f
00000310: 0000 803f 697d 7e3f 4352 7f3f 9c2c 803f
00000320: 0000 803f fa5c 7f3f 0000 803f c163 7e3f
00000330: 0000 803f 0000 803f 0000 803f 0000 803f
00000340: 697d 7e3f 48d0 803f 0000 803f 0000 803f
00000350: a1d2 7f3f 0000 803f 0000 803f 0000 803f
00000360: e9a4 803f 0000 803f 8bf2 7c3f 60ff 7c3f
00000370: 0000 803f f4ac 803f 0000 803f ec4a 803f
00000380: 27d6 803f 0000 803f 0000 803f 0000 803f
00000390: 0000 803f 4ac1 803f b0c3 7e3f e8ed 803f
000003a0: 0000 803f 0000 803f 0000 803f bb3c 7f3f
000003b0: 4925 813f 1f75 813f 0000 803f 0000 803f
000003c0: b637 803f 789e 7f3f b200 823f b1ef 7d3f
000003d0: 0000 803f 0000 803f 0000 803f 29b4 813f
000003e0: 0000 803f 0000 803f 0000 803f 63f2 803f
000003f0: ca36 823f 4dc1 803f 701e 803f 0000 803f

emb_branch.3.bias f4 [256]
-0.027932873 -0.04171532 -0.031533368 -0.043802965 -0.044212416 -0.02713586 -0.030275924 -0.035516586
0.040459767 0.040103916 -0.04213628 0.033019006 -0.042429734 -0.035540834 -0.0434863 0.042756185
-0.038035847 0.036773864 -0.04227778 0.02514637 0.02447892 -0.04367926 0.040606264 0.043744117
-0.001226552 0.04348693 -0.007312577 0.036753558 -0.039582863 -0.03876332 0.042811316 -0.03649469
0.043655917 0.022897907 -0.03634962 0.0436938 0.034278765 0.043408416 -0.04258261 -0.021723626
-0.039018493 -0.04450855 -0.044399597 0.043123245 -0.042649765 -0.030266158 -0.039395913 -0.027973814
0.044087708 0.022507526 -0.0396148 0.02343193 0.006775402 -0.032466967 -0.0438149 -0.037137598
-0.041225247 0.04220885 -0.02521823 0.038364362 -0.008111193 0.039971713 0.04409114 -0.03937596
0.03786061 0.041815933 0.037728436 -0.010598002 -0.04080721 0.036343876 0.026511775 -0.043782886
0.038950186 -0.041717373 -0.034968883 0.033776272 -0.044161633 0.012330591 0.03871197 0.0428126
0.030049453 0.019512733 0.03672214 -0.030907279 0.038969677 -0.043717846 -0.021665554 0.03833382
-0.02542478 0.043693453 0.028854767 -0.032904293 0.042031858 -0.043689962 0.043881524 0.007184511
-0.019047663 0.03832536 0.03693828 -0.00020247686 0.035467893 0.043417018 0.029403724 0.044066705
-0.03895106 0.04451376 -0.022136513 0.037642267 -0.041078843 0.029086007 0.04411225 -0.044001475
-0.034512475 0.0438162 0.04293913 0.0435961 -0.04327078 0.033762068 0.0425957 -0.04008584
0.011637134 -0.035178807 -0.023779238 0.043717023 0.0365223 0.001495701 0.027111275 -0.041338965
-0.044152718 -0.04371112 -0.04347691 0.043055747 -0.027695134 0.043265674 0.004879324 0.04360781
0.04346883 -0.040300418 -0.043944575 0.009519178 0.036105502 -0.027141582 0.04030275 -0.041215528
0.04395419 0.039576873 0.04242158 -0.028040046 0.042894807 0.043507647 -0.039220583 -0.03198214
-0.02911686 0.04073106 -0.043642174 -0.036914658 0.031077841 -0.036547586 0.005840925 -0.03206225
-0.040739004 -0.026152823 0.03389036 -0.026270375 0.041336294 0.010540627 -0.030183516 0.035717584
-0.04374198 0.028309884 -0.042950485 -0.033292554 0.04108246 0.039181087 0.004133747 0.037313562
-0.043951187 0.040575627 -0.028889991 0.032541912 -0.038029164 -0.039159838 0.042174686 0.0354946
0.043872073 -0.029104635 -0.04227936 0.043741483 0.043821864 -0.043625742 -0.042955693 -0.038849685
0.025561113 0.04252293 -0.03706135 -0.011393843 -0.04300992 -0.041253462 0.007095797 0.023788605
-0.042823166 0.031768158 -0.04376808 0.0041015884 0.040657032 0.04329191 -0.043560654 -0.04310759
-0.037873715 0.03863126 -0.04004844 -0.043228373 0.007894765 -0.04373321 0.043511406 -0.043167766
0.039751183 0.044049352 -0.033244073 -0.00885775 -0.035865165 -0.02136202 -0.039238825 0.012457066
0.035536602 0.042883486 0.042354472 0.042036235 -0.043086067 0.03471777 -0.03737934 0.022448083
0.042002916 0.04274798 -0.043846965 0.0012998187 0.034165986 -0.03167716 -0.043497775 -0.043831494
-0.019556554 0.004686168 0.033504818 -0.008552437 -0.04437686 0.043768305 0.043032676 0.033506956
0.04400708 0.04328263 -0.04334861 0.035643637 0.03618958 0.0050965887 -0.032822132 -0.044504758
00000000: 7bd3 e4bc afdd 2abd 2229 01bd bd6a 33bd
00000010: 1418 35bd 064c debc 3705 f8bc d779 11bd
00000020: 24b9 253d 0144 243d 1897 2cbd f03e 073d
00000030: cdca 2dbd 4493 11bd b11e 32bd 1c21 2f3d
00000040: 7acb 1bbd 31a0 163d 772b 2dbd c3ff cd3c
00000050: 0488 c83c 06e9 32bd c152 263d 082d 333d
00000060: 41c4 a0ba 5a1f 323d 589e efbb e68a 163d
00000070: a421 22bd 49c6 1ebd eb5a 2f3d 757b 15bd
00000080: 8cd0 323d 6494 bb3c 57e3 14bd 45f8 323d
00000090: e467 0c3d 06cd 313d 1a6b 2ebd bff5 b1bc
000000a0: dbd1 1fbd 994e 36bd 5adc 35bd 00a2 303d
000000b0: 85b1 2ebd bcf0 f7bc 9c5d 21bd 5729 e5bc
000000c0: 5095 343d b461 b83c 2143 22bd 52f4 bf3c
000000d0: 3104 de3b 15fc 04bd 4177 33bd 981d 18bd
000000e0: cedb 28bd 30e3 2c3d 7696 cebc f323 1d3d
000000f0: cfe4 04bc 61b9 233d e998 343d b048 21bd
00000100: ba13 1b3d 2f47 2b3d 2289 1a3d 3ea3 2dbc
00000110: 7625 27bd 51dd 143d 392f d93c af55 33bd
00000120: 3b8a 1f3d d6df 2abd 883b 0fbd fd58 0a3d
00000130: d4e2 34bd 3f06 4a3c 7190 1e3d 445c 2f3d
00000140: 452a f63c 2bd9 9f3c f469 163d 4331 fdbc
00000150: ab9e 1f3d 7c11 33bd f67b b1bc ec03 1d3d
00000160: a147 d0bc e8f7 323d d560 ec3c a7c6 06bd
00000170: 9929 2c3d 3ff4 32bd 1dbd 333d 0c6c eb3b
00000180: d809 9cbc 0dfb 1c3d 984c 173d f84f 54b9
00000190: c846 113d 0bd6 313d 14e0 f03c 4a7f 343d
000001a0: 268b 1fbd 0f54 363d a257 b5bc c72e 1a3d
000001b0: 4a42 28bd c745 ee3c 0caf 343d e43a 34bd
000001c0: f45c 0dbd 9e78 333d f1e0 2f3d d391 323d
000001d0: b43c 31bd 184a 0a3d d478 2e3d 0d31 24bd
000001e0: ada9 3e3c a717 10bd adcc c2bc 9f10 333d
000001f0: 6898 153d 660b c43a 7718 de3c 0c53 29bd
00000200: 7bd9 34bd 6e0a 33bd d814 32bd 395b 303d
00000210: e8e0 e2bc 5937 313d bde2 9f3b 1a9e 323d
00000220: 5f0c 323d 0d12 25bd 3aff 33bd 54f6 1b3c
00000230: 5de3 133d 0658 debc 7f14 253d 9dd1 28bd
00000240: 4f09 343d 5c1b 223d 40c2 2d3d 3db4 e5bc
00000250: 77b2 2f3d 1335 323d c3a5 20bd b4ff 02bd
00000260: 7b86 eebc 9dd5 263d 23c2 32bd d333 17bd
00000270: f596 fe3c ecb2 15bd 3b65 bf3b b553 03bd
00000280: f1dd 26bd 723e d6bc 9ed0 0a3d f834 d7bc
00000290: 3f50 293d 98b2 2c3c 6c43 f7bc 9a4c 123d
000002a0: ca2a 33bd 21ea e73c d9ec 2fbd c65d 08bd
000002b0: 1546 283d 597c 203d 6274 873b 1bd6 183d
000002c0: 2906 34bd a132 263d b4aa ecbc ab4a 053d
000002d0: 78c4 1bbd 1166 20bd 5dbf 2c3d c962 113d
000002e0: 34b3 333d d86c eebc 1f2d 2dbd 452a 333d
000002f0: 8e7e 333d e8b0 32bd 4ff2 2fbd d920 1fbd
00000300: 8a65 d13c 862c 2e3d a4cd 17bd 3ead 3abc
00000310: 2b2b 30bd 64f9 28bd dc83 e83b 52e0 c23c
00000320: 5867 2fbd 541f 023d 2946 33bd 9e66 863b
00000330: fd87 263d dc52 313d a86c 32bd 9691 30bd
00000340: 7821 1bbd d03b 1e3d d509 24bd 3c10 31bd
00000350: 0b59 013c 9821 33bd 0439 323d afd0 30bd
00000360: 23d2 223d 186d 343d f02a 08bd 1920 11bc
00000370: 5ae7 12bd 67ff aebc e4b8 20bd b918 4c3c
00000380: d48e 113d 98a6 2f3d e27b 2d3d 302e 2c3d
00000390: 047b 30bd 3834 0e3d 141b 19bd 0be5 b73c
000003a0: 400b 2c3d 8218 2f3d e098 33bd ae5e aa3a
000003b0: a2f1 0b3d e9bf 01bd b92a 32bd a788 33bd
000003c0: 1135 a0bc 6d8e 993b 593c 093d 851f 0cbc
000003d0: 83c4 35bd 6546 333d 0843 303d 973e 093d
000003e0: c540 343d 2149 313d 508e 31bd 10ff 113d
000003f0: 863b 143d 4901 a73b 8070 06bd 9f4a 36bd
