final-code/spring-petclinic-microservices-experiment/models/anti_pattern_model_spring_petclinic.pth (torch, 286444 bytes, 19 tensors)

m_branch.0.weight f4 [128, 11]
00000000: 7330 2c3e e28d 6cbb 5788 a1bd 3a93 a7bd
00000010: 1053 793e 6cfe 623e 45b2 203e 73c0 fabd
00000020: e28d 4dbe fb81 b0bd 3886 2c3e 012b 22be
00000030: 9e1c 2abe 9006 b6bd f87d ffbd 5829 c73d
00000040: f8a6 7a3d d964 02be fcff 353e 990d d93d
00000050: 654b 60bd 8231 2a3e 4135 5bbe ed48 053e
00000060: 6d0f 603e 40f5 50bd 4d03 c53c a882 8b3e
00000070: 8072 6c3e bb84 1f3d 5413 b93d 562a 08be
00000080: 8ed2 a2bd 5c32 943e 5d51 493e dff4 a63d
00000090: 3e91 183e 9c82 573e d5f4 cabd 4510 003e
000000a0: 15dd 87be bea1 8b3d cc5b 563c aaea 97bc
000000b0: c6eb d5bd aade 323e 8007 91bc f303 23be
000000c0: 0a1b 853e 5511 233e 7ed2 493e c2b9 99be
000000d0: 6452 3b3d f4ba 2bbe 83c5 95bd b3d6 9fbd
000000e0: 99b3 fa3d 2917 0ebd 6e7e 85bd 8d49 a2bd
000000f0: e691 483d 8b83 64be 40dc 163e ebd0 123d
00000100: 63ad 01be 9e17 debd 54ad 1d3e 7114 ce3d
00000110: 1668 e1bd 086d fd3d 9c40 4e3c aa4b 43be
00000120: d93e 95bd 93c4 e2bc 1123 0ebe 5630 1a3e
00000130: 1cac 043e b0b6 57bd 62e5 acbd 45d1 5d3e
00000140: ff40 14be 9a5f 1dbe 4f2a 4abe 9fce 24be
00000150: 95c4 883a be95 8e3d 35e7 5dbe 5118 68be
00000160: 4026 4e3e c76a 413e 7b33 9dbd 84df 99be
00000170: 6392 623e a4ae a63d 9fc2 933e 30fe 293e
00000180: 8222 f7bd 18be 143e fa86 76be c517 fdbd
00000190: 527b 283d ede1 21bd 340e 863e 5912 0e3e
000001a0: 9312 5fbe 6da3 3e3e 0a07 22be 8d28 92be
000001b0: 3eec a73b cde2 25be 4bc9 913e 1e32 89be
000001c0: b47b 413e cc77 863d c611 ecbd dd3b 233e
000001d0: 9b90 88be 09a8 81be 1d8f e63d b274 44be
000001e0: 44c3 30be 367d 5f3e 3fec 88be 5062 cebd
000001f0: f413 0ebe 5bd0 8d3e 8704 db3d 2f63 89be
00000200: 9afe af3c 1705 9f3d da68 953e 0124 1e3e
00000210: 5fae 383c 309e 653d 57b2 4dbe 40de 7e3d
00000220: 1dd1 043e 6ce9 c13d 03fa 9ebe 8a5c 603d
00000230: b84a 903e 9cc4 9dbe 75af e43d 0487 20be
00000240: cf85 3f3e 427c cd3d bce4 773e 8f72 383d
00000250: 2dd4 133e bb9e 3abe c9e4 42be 5e80 8c3e
00000260: 3e18 1a3e 5808 883e 4b50 463e 68ac 1e3e
00000270: 2e6e 33be a81e c63d 4055 733e 31d1 283e
00000280: 669c 943b 549a 58be 200f ddbc 2237 8abe
00000290: b933 edbd 7b25 0dbe 15ad 553e 9dc2 8dbe
000002a0: 763e b0bd c861 92be 5069 da3d 8158 aa3d
000002b0: c869 cfbd d196 40be a2e4 f4bd 611c ae3d
000002c0: acda b33d 54e8 56be ec61 bc3c 6e83 8b3e
000002d0: 3375 a73d 0a23 d1bd b4ec 50bc 10af 0bbe
000002e0: 1c1d a93d 1cbf e63d 6fc0 91be c054 93be
000002f0: 4445 e6bd b932 49bd c0e9 c0bc 4c60 9a3e
00000300: af89 8dbd ed7a 6fbe 6f01 153e 905a 823d
00000310: 5953 24be 7686 80be ece8 0cbe 8807 913e
00000320: 050d 3cbe 107e f33d 845f d13c b3ef 33be
00000330: f9a9 eb3c bb18 af3c 1cd1 26be 23b6 363e
00000340: 9cc5 91bd c0a7 4abc cb55 783e 65ea 2ebd
00000350: 0a36 c4bd 4f06 3cbe eedb 5d3e 9a62 763e
00000360: 591f 803e d2dd d8bd b687 a33d 2511 86be
00000370: 5568 28be 3963 74be 8c00 d4bc cc8d 0a3e
00000380: 2c0f 183e d202 0ebe 26f1 40be 93b3 79bd
00000390: ee64 913d 3319 023b bf22 0a3e d49e b53d
000003a0: cbb9 8fbe 450a 5e3e 4e3b 223e d132 3cbe
000003b0: 36c7 d0bd ea72 e73d 7b8f 373c b89a be3d
000003c0: 3935 ec3d 1116 79be bf75 5abd aeb3 0abe
000003d0: 6be7 05be c0be bebb 676d 4a3e 2121 4e3e
000003e0: d680 36bd 5e37 86bd 8b79 59bd 4096 8bbe
000003f0: e7f5 df3d e6ce 053e 63c1 0dbe f29d 31be
0.16815357 -0.003609531 -0.07887333 -0.08182378 0.24348092 0.22167367 0.15693004 -0.12243738
-0.20073655 -0.08618542 0.16848075 -0.15836717 -0.16612479 -0.088879704 -0.124751985 0.097246826
0.06119439 -0.12733783 0.17773432 0.10598297 -0.0547594 0.16620448 -0.21407034 0.130161
0.21880884 -0.05101514 0.024049425 0.2724812 0.23090553 0.03894494 0.0903689 -0.132974
-0.07950316 0.2894467 0.19659944 0.08152174 0.14899155 0.21045917 -0.09909979 0.12506206
-0.2653586 0.06817959 0.0130834095 -0.018544514 -0.10445361 0.17467752 -0.017703772 -0.15919475
0.25997192 0.1592458 0.19709203 -0.30024534 0.04573287 -0.16770536 -0.07313063 -0.078046225
0.12241287 -0.034690056 -0.06518255 -0.07924185 0.048967265 -0.22315805 0.14732456 0.03584377
-0.12663798 -0.10844348 0.1539815 0.10062493 -0.11006181 0.12374312 0.012588646 -0.19071832
-0.07287378 -0.027681625 -0.13880564 0.15057501 0.1295628 -0.05266446 -0.08442189 0.21661861
-0.14477919 -0.153685 -0.19742702 -0.16094445 0.0010434563 0.06962155 -0.2167023 -0.22665526
0.20131779 0.18888389 -0.07675835 -0.3005334 0.22126155 0.08138779 0.28859422 0.16600871
-0.12067129 0.1452564 -0.24074927 -0.12358049 0.041133232 -0.0395221 0.2618271 0.13874187
-0.21784429 0.1861703 -0.15822998 -0.28546563 0.005124598 -0.16199799 0.28473887 -0.2679605
0.18894845 0.06565818 -0.115268275 0.15940805 -0.26672825 -0.25323513 0.112577654 -0.1918514
-0.17261988 0.21825108 -0.2674274 -0.10077345 -0.13874799 0.27698025 0.10694223 -0.26833484
0.021483708 0.07764643 0.29181558 0.15443422 0.011272042 0.056059062 -0.20087563 0.062223673
0.12970395 0.0946835 -0.3105012 0.054775752 0.28182006 -0.30814064 0.11166278 -0.15676504
0.18703388 0.10033466 0.24208349 0.045031127 0.14436407 -0.18224613 -0.19032587 0.27441686
0.1504831 0.26568866 0.19366567 0.15495455 -0.17522499 0.09673816 0.23762989 0.1648605
0.0045352457 -0.21152622 -0.026984751 -0.26995188 -0.11582131 -0.13783829 0.20866807 -0.2768754
-0.086056635 -0.28590226 0.10664618 0.08317662 -0.10127598 -0.18807532 -0.11957671 0.085015066
0.08781943 -0.20987064 0.022995912 0.2724871 0.08176651 -0.10211761 -0.012751747 -0.13641
0.08257505 0.1126692 -0.28467128 -0.28775597 -0.1124368 -0.04912064 -0.02354896 0.30151594
-0.06911027 -0.23386736 0.14551328 0.0636493 -0.1604742 -0.25102586 -0.13760728 0.28326058
-0.18364342 0.11889279 0.02555824 -0.17571907 0.028767573 0.021374097 -0.16290706 0.17842917
-0.07117769 -0.012369096 0.24251477 -0.042704005 -0.0958062 -0.18361782 0.21665928 0.24061051
0.25023916 -0.10589184 0.07984869 -0.26184955 -0.1644605 -0.23865975 -0.025879167 0.13530654
0.14849538 -0.13868263 -0.18841991 -0.06096227 0.07099329 0.0019851446 0.13489817 0.08868185
-0.28071436 0.21683605 0.15842935 -0.1837876 -0.101942465 0.11301215 0.011203642 0.09306854
0.11533589 -0.24324824 -0.053334948 -0.13545105 -0.1307656 -0.005821079 0.19768296 0.20129825
-0.04455646 -0.06553529 -0.053094428 -0.2726307 0.10935574 0.13067207 -0.13843302 -0.17345408

m_branch.0.bias f4 [128]
00000000: 2619 e5bd c960 903e ac00 cd3d 0d9b 033d
00000010: 89c5 09bd af06 97be f596 e33d 6286 ce3d
00000020: 0c8a 0b3e 8fe8 7e3c b727 723d 12e2 0fbe
00000030: beda 883e ce6d 69be 2ba1 0b3d 5ccd 4dbe
00000040: 2480 40be aa8a 303e d813 3cbd c9a2 97be
00000050: 21d7 8dbd 124a 39be 77f7 84be c6e0 913e
00000060: 95ca 493e 71a6 3f3e ffe3 6ebe ef80 aebd
00000070: 50c9 313e d350 dfbb fe59 7d3e 2732 803e
00000080: ba7f df3d 29ac 813e 77ca 64bd 5e6d 583e
00000090: b875 7a3e 2e48 40bd e5f5 963d a7fb 79be
000000a0: eed2 bc3c f492 8e3e 0bda 313d 7f6b 65be
000000b0: b622 2a3e 3fd8 08bd 47cb 2abe 7311 903e
000000c0: cea5 af3c 9101 99be 1fb7 c03d fa37 943e
000000d0: a4e8 83be 56b1 0e3e 1c33 1fbe 79ca c23d
000000e0: 8cd9 42be ba95 7b3e 5472 afbd 82f9 a33d
000000f0: 23b8 073d 05c6 433e a1aa 2fbe 146a 643e
00000100: 9fa2 80be a305 223e 176e 33bd 3eef d83d
00000110: 4b5e 063e 4d5a 35be 4af1 623d 5672 983e
00000120: 604b 453a ce52 6b3e 6098 89bd 3548 6dbc
00000130: 52f3 8dbe b7b4 fd3d c8c0 93bd aa4e 5a3d
00000140: 8168 3d3d b9e0 183d 45a8 663e ce74 bbbd
00000150: 9d6b c5bc 76ac d63d ec64 3dbe ae28 38bd
00000160: b796 9c3d 0aba 243d 3e0d 3c3e 1320 edbd
00000170: 6e6b 82be fafd dabd 9d39 f3bd 8bca 843c
00000180: 6b6a be3d 6cb5 a13d 193c 04be af77 1b3e
00000190: 457f 223d d91a 6fbe 5e8b e8bd 1d2e 95be
000001a0: 98c0 12be 4c65 1a3e 51af 5cbe 1b2d 43be
000001b0: 693c 88be b2e7 1c3e 1378 0b3e 093b dd3d
000001c0: 8055 8cbd 9495 6fbd c88b 48be e758 36be
000001d0: 3806 013e 4925 dabd e5f6 b8bc 9054 003e
000001e0: 353c 66be c573 403e f62d 243e dc30 8bbe
000001f0: 303e 3fbc c4f5 0b3c 78b4 09be 0eb6 40be
-0.11186437 0.2819884 0.10009894 0.03213029 -0.03363565 -0.29497287 0.11112777 0.10084225
0.1362688 0.015558376 0.059119906 -0.14051083 0.26729387 -0.22795793 0.03408925 -0.2009787
-0.18798882 0.17240396 -0.045917362 -0.29616383 -0.06925798 -0.18094662 -0.2597005 0.284918
0.19706185 0.18715836 -0.23329161 -0.08520686 0.17361951 -0.006815055 0.2474136 0.25038263
0.10913034 0.2532666 -0.055857148 0.2113547 0.24458969 -0.046943836 0.073711194 -0.24412404
0.023049798 0.2784649 0.043420833 -0.22404288 0.16614804 -0.033409353 -0.16679107 0.28138313
0.021441367 -0.29884008 0.094099276 0.28948957 -0.25763428 0.13934836 -0.1554684 0.09511275
-0.190283 0.24568835 -0.08566728 0.08006574 0.03313459 0.19118507 -0.17154934 0.2230609
-0.2512407 0.15822463 -0.04380616 0.10592507 0.13121907 -0.17710228 0.055405892 0.2977473
0.00075261854 0.22980806 -0.06718516 -0.0144825475 -0.277247 0.12387984 -0.072145045 0.053297676
0.04624224 0.037323687 0.22525127 -0.09153138 -0.024099166 0.10482113 -0.1849553 -0.04496067
0.07645934 0.040216483 0.18364426 -0.11578383 -0.25472587 -0.106929734 -0.11876223 0.016209861
0.09297641 0.078959316 -0.1291355 0.15182374 0.039672155 -0.23350085 -0.11354707 -0.29136744
-0.14331281 0.15077704 -0.21551253 -0.19060175 -0.2660859 0.1532276 0.13620023 0.10802276
-0.06852245 -0.05849226 -0.19584572 -0.17807351 0.12600029 -0.10651643 -0.022578666 0.12532258
-0.22483905 0.18794163 0.16033158 -0.27185714 -0.0116725415 0.008542482 -0.1344775 -0.18819448

m_branch.1.bn.weight f4 [128]
00000000: 7e9f 803f 64a7 813f 8976 813f 14a8 7f3f
00000010: fa9d 7e3f 7b70 7e3f dfcf 7b3f b6b2 813f
00000020: 432b 803f c8fa 803f 3016 803f 7272 7e3f
00000030: 54bc 813f 1446 823f d139 823f 6058 813f
00000040: 6581 803f c2af 803f 4e8d 823f b97d 813f
00000050: e789 7f3f 6f53 823f 2ced 813f 632e 813f
00000060: 9c20 823f a7a8 813f de5c 823f 5af5 7c3f
00000070: 670e 813f c487 813f 9c71 823f 424b 823f
00000080: a92f 813f 9a5a 823f f8b0 813f 4748 823f
00000090: 3067 823f 101a 823f 0a39 813f a63e 803f
000000a0: 0e50 813f e9e2 7d3f 9892 823f ba4d 823f
000000b0: 84eb 803f 0e36 7c3f 7b7f 813f 849b 823f
000000c0: bdec 813f c03b 813f da6f 823f 1d51 803f
000000d0: 4f85 7f3f e000 823f 893a 813f cb51 813f
000000e0: d41a 823f a225 7d3f 22eb 7d3f 0cc0 803f
000000f0: 1d40 813f 7b11 7f3f 987e 823f 8507 7f3f
00000100: 08b5 803f 41f9 803f 982e 823f 0ebd 803f
00000110: 1737 813f 3ce7 803f c674 823f d813 823f
00000120: 5a08 7f3f 5a73 823f 4c0f 823f 4791 813f
00000130: a687 823f b22e 823f 1efb 813f d3de 813f
00000140: a035 813f 6151 823f c065 813f 737d 823f
00000150: 7f7b 823f f1d5 7d3f 6d7a 813f 0408 823f
00000160: df19 823f 6aca 7e3f 1a74 813f 1bd2 803f
00000170: 75d6 7c3f 8bc7 813f d7ab 813f 4fdb 803f
00000180: a87f 7d3f ab05 813f 187b 803f dae8 7f3f
00000190: afb6 7f3f fb01 823f 225d 823f 2a08 813f
000001a0: cd0d 7d3f f171 813f fc91 823f fd9d 803f
000001b0: fb49 813f 7a63 823f 6f95 803f f7d8 803f
000001c0: 730a 813f d735 823f d21c 803f c9e4 803f
000001d0: b6b2 7b3f 2ac4 803f af57 813f c763 823f
000001e0: 31d7 803f 7f85 823f 169e 823f 3551 823f
000001f0: e89f 7c3f c7b8 803f 4bd6 813f 1ca0 7f3f
1.0048673 1.0129209 1.0114299 0.9986584 0.99459803 0.9939038 0.9836406 1.0132663
1.0013202 1.0076532 1.0006771 0.9939338 1.0135598 1.0177636 1.0173894 1.0105095
1.0039488 1.0053637 1.0199373 1.0116493 0.998198 1.0181712 1.0150504 1.0092281
1.0166202 1.0129594 1.0184591 0.98811877 1.008252 1.0119557 1.0190921 1.0179217
1.009267 1.0183899 1.0132132 1.0178307 1.018774 1.0164204 1.0095532 1.0019119
1.0102556 0.9917436 1.0200987 1.017997 1.0071874 0.9851998 1.0117029 1.020371
1.0150372 1.0096359 1.0190384 1.0024754 0.9981279 1.0156517 1.0095989 1.0103086
1.0164437 0.9888555 0.9918691 1.0058608 1.0097691 0.9963605 1.0194883 0.9962085
1.0055246 1.0076066 1.0170469 1.0057695 1.0094937 1.0070567 1.0191886 1.0162306
0.9962212 1.0191453 1.0160918 1.012246 1.0197647 1.01705 1.015476 1.0146126
1.009449 1.0181085 1.0109177 1.0194534 1.0193938 0.99154574 1.0115486 1.0158696
1.0164145 0.9952761 1.0113556 1.0064119 0.98764735 1.0139021 1.0130566 1.0066928
0.9902291 1.0079855 1.0037565 0.9996468 0.9988813 1.0156854 1.0184672 1.0080616
0.98849183 1.0112897 1.0200801 1.0048214 1.0100702 1.0186608 1.0045604 1.0066212
1.0081314 1.0172681 1.0008795 1.006982 0.98319566 1.0059865 1.0104884 1.01867
1.0065671 1.019699 1.0204494 1.0181032 0.986815 1.005639 1.0143522 0.9985368

m_branch.1.bn.bias f4 [128]
00000000: 218c 9f3b a60a 553c ef3f 823c 8c15 073c
00000010: 1c25 23bb 32f4 55bc a9fb 98bc 5575 473c
00000020: eff8 ad3a bf5f e53b 21b8 013b 6a7f a5bb
00000030: 8dab 503c bc54 a53c 7db1 803c 2bfc 2c3c
00000040: b78a 5a3a 78e5 2f3b 9b3d a33c 8aef 813c
00000050: da24 cdba b715 763c a284 763c 6e62 cd3b
00000060: b539 9b3c d9c2 db3b d93b 9b3c 6df8 76bc
00000070: 787c fd3b 7e2f 613c cc4f 9a3c dd47 953c
00000080: 2173 173c 1c19 983c de08 433c 9c57 8f3c
00000090: 8a06 6c3c 5525 213c 0ef5 aeb9 29af d4ba
000000a0: 041b 683c 48d4 5bbc 440b a53c c3e3 933c
000000b0: f6b8 ca3b 47aa 72bc 38eb 873c 1a56 a83c
000000c0: b1dc 853b 676b 1b3b bf8d 9a3c d982 8f3b
000000d0: 3e29 f2ba 7942 863c 851f 1d3c 74b8 0a3c
000000e0: b929 803c 8056 11bc b701 05bc 2e67 c03b
000000f0: a560 443c 86ab c8bb 65ac a03c 2af6 76bb
00000100: 0708 de3b 049d 033c 6a5b 543b 32f1 cc3b
00000110: ee39 573c 0161 0f3c 5f62 9d3c 290f 7e3c
00000120: bd58 323c d2bf 9b3c 0e3f 873c 665b 4e3c
00000130: 0cdc a33c e08b 833c 8438 353c 504c a03c
00000140: 0e5e b2bb db07 943c 808b 433c 1e54 813c
00000150: da67 9f3c 38c0 11bc 0aef 4c3c 2395 803c
00000160: 1a49 703c 0e78 a6bb 6cde 243c 484f 38bb
00000170: 763f 5cbc 28c1 633c 1fbf 763c 893f de3b
00000180: 18f0 c9bb 333e 073c 6a66 763b 58c3 4bbb
00000190: 2ad0 353a 2261 5d3c db75 983c 53dd 0d3c
000001a0: e241 1dbc 6741 3c3c 6950 a73c 390f ed3b
000001b0: 0b5c 3a3c b2c4 953c 8c7f 953b 0f28 353c
000001c0: 7795 053c d2b8 9d3c 90ed 423b 9d9b e23b
000001d0: 7eb9 8abc 2c9e a93b 706f 153c dddd 9d3c
000001e0: 9ac2 e13b cc22 a43c 81dc a43c 8434 943c
000001f0: b04a 5bbc 3e70 e23b efcc 6f3c 6ff9 71bb
0.0048689996 0.013003027 0.015899627 0.008244883 -0.0024893945 -0.013058709 -0.018674688 0.01217397
0.001327304 0.006999939 0.0019793587 -0.0050505893 0.012736213 0.020182006 0.015709633 0.010558168
0.000833671 0.0026839655 0.019926837 0.015861291 -0.0015651241 0.015019826 0.015046271 0.0062678372
0.018948415 0.0067065773 0.018949436 -0.015073878 0.007735785 0.013744233 0.018836878 0.018222744
0.009243757 0.01856666 0.01190397 0.01749783 0.014405856 0.009835561 -0.00033370446 -0.0016226518
0.014166597 -0.013417311 0.020146973 0.018052941 0.0061866 -0.014811105 0.016591653 0.020548869
0.0040851464 0.002371514 0.018866418 0.004379612 -0.0018475426 0.016389119 0.009590034 0.008466829
0.015644895 -0.008870721 -0.008118085 0.005871675 0.0119859325 -0.006123963 0.019613454 -0.0037683346
0.0067758593 0.008033041 0.003240312 0.0062543387 0.01313637 0.008751155 0.019211946 0.015506544
0.010885415 0.019012365 0.016509559 0.012595033 0.020002387 0.016057909 0.011060838 0.019567639
-0.005443341 0.018070152 0.011935115 0.01578718 0.0194587 -0.008895926 0.012508163 0.015696114
0.014665866 -0.0050802296 0.010062795 -0.0028123427 -0.013442865 0.0139010325 0.015060215 0.0067824763
-0.0061626546 0.008254576 0.0037597665 -0.0031091776 0.0006935621 0.013511928 0.018610885 0.008658725
-0.009598227 0.0114902025 0.020424085 0.0072344807 0.011374484 0.018282268 0.004562324 0.011056914
0.008153311 0.019253168 0.002974365 0.006915523 -0.016934153 0.0051763263 0.009120807 0.019270832
0.0068896534 0.020036124 0.020124676 0.018091448 -0.013384506 0.006910353 0.014636262 -0.0036922356

m_branch.1.bn.running_mean f4 [128]
00000000: 753d c9bd 7da3 7d3e 7f13 b43d ac01 e73c
00000010: a113 f2bc 49a4 84be bbf6 c73d a269 b53d
00000020: 1c25 f53d e374 603c 45b8 543d 2ab4 fcbd
00000030: 0e6d 703e f621 4dbe 366b f53c f6c2 34be
00000040: 3e19 29be f11a 1b3e c032 25bd 9731 85be
00000050: 8229 79bd 67cc 22be 5b92 69be 411e 803e
00000060: e24c 313e 584f 283e e5da 51be 004c 99bd
00000070: 9429 1c3e ac73 c6bb 638f 5e3e 6e26 613e
00000080: f159 c43d a3c2 633e 2dcb 48bd c71a 3e3e
00000090: 8706 5c3e 40ed 28bd 389c 843d 3d93 5bbe
000000a0: 22c9 a53c a480 7a3e 6859 1c3d 878a 49be
000000b0: 3873 153e c865 f0bc f306 16be f709 7d3e
000000c0: 5e63 9a3c 2c69 86be f344 a93d b633 823e
000000d0: e0b7 67be eea6 fa3d dadd 0bbe 471c ab3d
000000e0: ee28 2bbe 60fe 5c3e 2417 9abd cf0a 903d
000000f0: 5d53 ee3c 0df5 2b3e 5162 1abe 9ca5 483e
00000100: 4dfb 61be 5b57 0e3e 5f9a 1dbd 07cc be3d
00000110: cf19 ec3d 9f4c 1fbe 226a 473d 6fea 853e
00000120: e2e1 2c3a cbb2 4e3e ab05 72bd b482 50bc
00000130: 9a65 79be 1ded de3d e6b8 81bd f38f 3f3d
00000140: 5362 263d 7f5b 063d 8d99 4a3e 43b4 a4bd
00000150: 706b adbc 7e96 bc3d 5a63 26be 9ebc 21bd
00000160: 878f 893d 69b2 103d 5924 253e a253 d0bd
00000170: 2820 65be 5b60 c0bd ada3 d5bd cba6 683c
00000180: 5d3f a73d 110a 8e3d 854f e8bd c895 083e
00000190: 40af 0e3d 40ff 51be 1c45 ccbd e90a 83be
000001a0: a8e9 00be a49f 073e c7ee 41be 4b69 2bbe
000001b0: d756 6fbe ecd6 093e 3907 f53d fb50 c23d
000001c0: 8c9e 76bd 969b 52bd d327 30be c22c 20be
000001d0: d1b5 e23d bb8d bfbd 93c5 a2bc 2d93 e13d
000001e0: c63e 4abe c317 293e 6f3a 103e c989 74be
000001f0: f0eb 27bc 83e5 f43b c0ea f1bd df48 29be
-0.09826175 0.24769397 0.08792781 0.02819904 -0.029550375 -0.2590659 0.09763857 0.088580385
0.11969969 0.013699743 0.051933546 -0.12339051 0.23479101 -0.20032486 0.029958349 -0.17652497
-0.16513535 0.15146996 -0.040331602 -0.26014397 -0.0608306 -0.15898286 -0.22809736 0.25023082
0.17314485 0.16436517 -0.20493658 -0.07485199 0.15250236 -0.0060562696 0.21734385 0.21987316
0.095874675 0.22242217 -0.04902189 0.18564902 0.21486865 -0.041241884 0.06475109 -0.21442886
0.02023751 0.24463135 0.038171202 -0.1968175 0.14594734 -0.029345408 -0.14651088 0.24710833
0.01884621 -0.26252115 0.08265104 0.25430077 -0.22628736 0.122388706 -0.13658848 0.08355003
-0.16714832 0.21581411 -0.07523945 0.070333116 0.029092485 0.16792698 -0.15076567 0.19594425
-0.2206852 0.13900511 -0.038477298 0.09316259 0.1152836 -0.15556572 0.0486852 0.2615542
0.00065949385 0.20185392 -0.059087437 -0.012726475 -0.24355164 0.108850695 -0.06334095 0.04676814
0.040621113 0.0328021 0.19785137 -0.08042195 -0.021169394 0.092083916 -0.16248837 -0.03948652
0.06716829 0.035326395 0.16127147 -0.10172202 -0.22375548 -0.09393378 -0.10431609 0.014199923
0.081663825 0.06935514 -0.11343292 0.13338387 0.0348351 -0.20507526 -0.09974119 -0.2559426
-0.12589133 0.13244492 -0.18938743 -0.16739385 -0.2337297 0.13460892 0.11964268 0.09488102
-0.060209796 -0.05141791 -0.17202692 -0.15642074 0.11069835 -0.09353205 -0.019869601 0.110144
-0.19750509 0.1651297 0.1408479 -0.23880686 -0.010249123 0.007473649 -0.11812353 -0.16531704

m_branch.1.bn.running_var f4 [128]
00000000: 68c6 8a3e 458c 2c3e 8253 733f c454 0c3f
00000010: e732 f73e 74c9 173e 2c0c b53e cf4f be3e
00000020: 2664 863f 14f3 943e 1ca0 213f cd22 873e
00000030: 3a36 5f3e 79b9 8e3e c003 113f 7870 e93e
00000040: da2a 783e fbba 823e 913a 993e a858 0c3f
00000050: b5a7 073f bf8b 373e 7525 4b3e 3c43 193e
00000060: cc73 a53e 4242 543e 7185 143f a91a 163f
00000070: 6a59 3f3f f375 8c3e c1f6 de3f edbb 2e3e
00000080: 823b a13e 7808 233e 7120 a03e 949a 623e
00000090: 0566 1a3f edfa 1e3e 396b bf3e 44f1 ba3e
000000a0: 65ca 5a3f 1806 423e 39c2 213f 2c7f 1b3f
000000b0: 250a a13e 4a98 5f3f 98e0 023f 06b1 983e
000000c0: 4786 2d3e 3b4f ef3e b76b f43e 7df8 e83e
000000d0: 7685 263e acc6 ad3e 67a0 593e 00f6 d03f
000000e0: 840b 8f3e 93f1 8e3e 29bd 0c3e 57bf 1a3f
000000f0: e433 aa3e 4c5e 643e 8dbe 933e 6756 9a3f
00000100: 8cd8 9a3e af9a 323f 48b5 9e3f 4570 173e
00000110: b36b d23e 307d 0b3f 37e9 623f 85c2 fe3e
00000120: a5d5 123f 76f4 3c3e e2f8 2e3e f5e5 b23e
00000130: 216c 1a3f 52ac 5f3e 6e8c 0e3e c3b7 4e3e
00000140: 60dd fc3e b95c 3f3e 964d 9c3e d2fd 8d3e
00000150: 4b9d f73e 4a57 b83e 064b ef3e 6011 cc3f
00000160: 2b90 c63e 14b2 023f 3df6 323e acf6 3e3e
00000170: 2254 a43e c32c 433f ca3d 603f be68 503e
00000180: f69f 213e c73f bf3e 2de1 b73f a5bd 253e
00000190: a6ca ab3e 8fc0 673e 7444 e83e 758e a23e
000001a0: 1cd1 723f 6bc5 293e 4fe9 053f 1f0e 6b3e
000001b0: 28b7 433e 0b7b c23e 73ef f93e a616 cd3e
000001c0: 7dd1 883e d025 0f3f da5b 4d3f f3f7 983e
000001d0: fd69 cd3e 6f45 103e 18b2 313e 0486 5d3e
000001e0: f5ba 6f3e cbe8 ca3e c791 813f f61b 4d3f
000001f0: 4846 b93e 7735 ea3f 6e34 b83e 9eb4 8d3e
0.27104497 0.16850384 0.950493 0.5481684 0.48281023 0.14822942 0.3536085 0.37170264
1.0499313 0.29091704 0.6313493 0.26393738 0.2179803 0.2787588 0.5664635 0.4559362
0.24235097 0.2553328 0.29927495 0.5482278 0.52990276 0.17924403 0.19838507 0.14967054
0.32314909 0.207284 0.58016115 0.5863443 0.7474581 0.27433738 1.7419053 0.17063875
0.31490713 0.159212 0.3127475 0.2212928 0.6031192 0.15525408 0.37386492 0.36512196
0.8546508 0.18947637 0.63186985 0.60740924 0.31453052 0.8734175 0.5112395 0.29822558
0.16945754 0.46740136 0.4773843 0.45502082 0.16261849 0.33940637 0.21252595 1.6325073
0.27938473 0.27918682 0.13744034 0.6044821 0.33242714 0.22301596 0.28856316 1.2057618
0.30243337 0.6976728 1.2399073 0.14788921 0.41097793 0.54487896 0.8863711 0.49757782
0.57357246 0.1845263 0.17087129 0.34941068 0.6032124 0.21843079 0.13920757 0.20187287
0.49387646 0.18687715 0.30527943 0.27732712 0.48362193 0.36004096 0.46736926 1.5942802
0.38781866 0.51052976 0.17476745 0.18648785 0.32095438 0.76240176 0.8759428 0.20352456
0.15783677 0.37353346 1.4365593 0.16185625 0.33553046 0.22632049 0.45364726 0.3174931
0.94850326 0.16579215 0.52309126 0.22954606 0.19112837 0.379845 0.48815498 0.40056342
0.26722327 0.5591707 0.8021828 0.2987667 0.40119925 0.14088987 0.17353094 0.21633154
0.23411162 0.39630732 1.0122613 0.8012079 0.36186433 1.8297566 0.359775 0.27676862

m_branch.4.weight f4 [64, 128]
00000000: e62a 8abd adb6 083c cc00 cb3d 5cb0 85bd
00000010: 8271 163c 5718 1ebd 08e7 bc3d 9c83 d03a
00000020: f558 cf3d 5601 6bbd 21fe 593d f22d 57bb
00000030: b97c 5fbd d91b 983d 7af6 8ebd ca0b 11bc
00000040: b578 543d a16d 17bd f0e2 90bc 69bc b13d
00000050: 0fc3 4d3c d4b9 c23c 8deb af3c 2fef 063d
00000060: a373 36bd a5e0 7dbd 6323 d3bc c9ce 25bd
00000070: 2347 993c a24b 213d 302a ae3d 2db8 93bd
00000080: aad1 22bd 53d0 82bd c666 573d 79df 6abd
00000090: a5fa a13d 0c1b 48bd 512c d4bc 8702 563d
000000a0: 47fd 983b 4831 b03d 2278 28ba cbf2 3fbd
000000b0: 3666 b33d e569 6ebd 5891 bfb9 b9a4 d13d
000000c0: 2ecc 013d 9202 6cbd b2e5 d6bb cf61 15ba
000000d0: d9fa 72bd 8c73 f5bc 32d5 6c3c 0a20 7f3a
000000e0: e42a 4abd 2a11 8e3c f8ce 8d3d 9aa6 84bd
000000f0: ba14 09bb d61d d33c 7262 553d bb09 b93d
00000100: 0833 883d c338 983d 8fff 913c ae73 0c3c
00000110: 0473 f43c 3b41 423d e482 503d 72ec 673d
00000120: aa78 ed3c efbc 753d 3737 563d 4eab 263c
00000130: 3b6a 6e3d b1de 4fbb 1aed cf3d 1f19 10bd
00000140: 0894 923b 6032 75bd 3d2a 5bbd ea16 e93c
00000150: ce15 d73d c168 133d 6d96 64bc 0892 32bd
00000160: be61 47bd 7960 ffbc efd3 a7bc 1b20 833d
00000170: ae1d 75bd b3d9 a23d 7ee1 aa3d 1ee4 12bc
00000180: 33a8 2bbd 25bc 703d 4c1e 8ebd 5690 9a3d
00000190: f968 dd3c 2f81 a83d 17af c23d 474c b03d
000001a0: 8cc7 0ebd a258 53bd 8607 ce3d 0a31 83bb
000001b0: 5663 7d3d cac2 3b3d 546c 6a3d 8ced 6c3d
000001c0: 847b d33c 0a15 fdba 1862 f7bc b55c 3cbc
000001d0: 4661 61bd 7572 4abd 9329 253d f8aa a13d
000001e0: 910d 853d 0cd7 8a3d e629 80bd 6d13 c93d
000001f0: 50fd ccbc 7e39 1b3d 418a bd3c cc9f d8bc
00000200: 2a35 623d 9b8d 873c 4702 02bd 58d1 9abb
00000210: d8c4 fa3c 8565 0cbd 3e98 863a 03ec 6fbd
00000220: 79e3 003d 017d 383b dd17 ddbc 8555 42bd
00000230: 466c 7cbd a210 81bd 5c1d 893d 1d92 953d
00000240: 0ca4 8e3d e96a 9d3d ad72 8f3d 2931 bbbd
00000250: 6dcf 743d c60a 8e3d 777a be3b e043 8c3c
00000260: 80f3 18bd 881a b1bc a641 a0bc d96e cb3c
00000270: 0cf5 08bd 339e 8a3d dae0 9cbd dccb 3d3d
00000280: 4c95 2c3d 510e a9bd c2f6 8d3c 58e2 6d3d
00000290: 5fc7 a63d 3b1c 4bbd 4775 36bd d084 45bd
000002a0: 28bd 9ebd 504e b4bd 44b4 0fbd c8d8 65bd
000002b0: 5a2f bcbd b648 e43c 19d0 cc3c 8246 3e3d
000002c0: dc6a b3bd 6fd9 8f3c 04f8 6c3c 814e 9a3d
000002d0: 876b 153c be2d 963d 4117 25bd c345 8e3d
000002e0: f269 cdba bcb4 b8bd 0599 233d 6474 cf3c
000002f0: 5a00 4fbd fff0 5ebd 1fb6 0b3c 1a89 74bc
00000300: d971 2a3c a56c dc3c 0f47 743c 2115 2a3d
00000310: b70c 9d3b e460 92bd c112 86bd 600b bbbd
00000320: da97 a43c 6b7c 93bd 7a31 28bd 34a2 71bc
00000330: b4c9 b8bd 5975 8c3b 0e3d 11ba 1289 98bc
00000340: 88c5 a13c 01e7 203c c868 e73b 48ae 1c3d
00000350: 5e19 67bd 2c66 9c3d c285 a93c eac9 80bd
00000360: d7e4 b3bd f859 a8bd b9e4 80bc 41be 25bc
00000370: fa50 4fbd 9f83 80bd cf86 cb3b c14c 4b3c
00000380: 40ad 26bd d043 843d 5fc6 103d eab0 12bd
00000390: d664 19bd 7660 b9bd d354 7c3d 0e09 963d
000003a0: 528e 3ebb dda8 cf3a daab b4bb d8f1 81bd
000003b0: 9094 0abd 3e97 f6bc bc02 7c3d cac1 4b3d
000003c0: 8cc8 97bc 570e 88bd dab1 a6bd 7e02 3ebb
000003d0: 7646 a1bb d994 a5bd 07d8 413d f062 703d
000003e0: a2a9 a9bd 7136 d03c 16ae b1bd 6029 913d
000003f0: 0f34 71bc beb7 8dbd 5f46 d83b a826 82bc
-0.067464635 0.008344335 0.09912261 -0.065277785 0.009182336 -0.03859743 0.09223753 0.0015908363
0.10124389 -0.05737432 0.05322087 -0.0032833782 -0.054562304 0.074271865 -0.069806054 -0.008852908
0.051872928 -0.036969785 -0.017686337 0.086785145 0.012558713 0.02377025 0.021474624 0.032942947
-0.044543874 -0.061981816 -0.02577371 -0.04048041 0.018710678 0.03937877 0.085041404 -0.07212863
-0.039750732 -0.06387391 0.052588247 -0.057342026 0.07909135 -0.04885392 -0.025900038 0.052248504
0.004668865 0.0860315 -0.00064265926 -0.046862405 0.087597296 -0.058206458 -0.00036538648 0.102364965
0.03168886 -0.05761964 -0.0065581435 -0.00056984735 -0.05932126 -0.029962324 0.014455127 0.0009732252
-0.04935731 0.017342169 0.06924242 -0.06477089 -0.0020916895 0.025771063 0.052095838 0.09035059
0.066503584 0.074327014 0.017822055 0.008572502 0.02984 0.04742549 0.050906077 0.056621976
0.028988201 0.059994634 0.05229875 0.010172678 0.058206778 -0.0031718428 0.101526454 -0.035180207
0.004473213 -0.059862494 -0.05350708 0.02845331 0.10502206 0.035988573 -0.01395188 -0.043596298
-0.0486772 -0.031173931 -0.0204868 0.06402608 -0.059842758 0.07951679 0.083437905 -0.00896552
-0.041908454 0.05877318 -0.069393724 0.07547061 0.027027594 0.08227765 0.09506052 0.08608299
-0.03485827 -0.0515982 0.10060029 -0.0040036486 0.061862312 0.045840062 0.057232216 0.05784373
0.025815733 -0.0019308638 -0.030198142 -0.011496712 -0.055024408 -0.04942556 0.04032285 0.07893938
0.06496728 0.06779298 -0.062579915 0.09818158 -0.025023133 0.037896626 0.023137214 -0.026443385
0.055226482 0.016547015 -0.031740453 -0.0047246628 0.03061144 -0.034276504 0.001026876 -0.058574688
0.031466935 0.002815068 -0.026988918 -0.04744484 -0.061626695 -0.063020006 0.06695053 0.073032595
0.06964883 0.07686407 0.070042945 -0.09140236 0.05976813 0.069356486 0.005812939 0.01712221
-0.037341595 -0.021619096 -0.019562554 0.02483313 -0.03343682 0.06768455 -0.076600745 0.046336994
0.042134568 -0.08254684 0.017329577 0.058077186 0.08143496 -0.04958747 -0.04454544 -0.048222363
-0.077509224 -0.088039994 -0.035084024 -0.05611494 -0.09188719 0.027866703 0.025001572 0.04645396
-0.08760616 0.017559735 0.014463428 0.07534505 0.009119875 0.073329434 -0.04030538 0.069469
-0.0015671833 -0.09018847 0.039940853 0.025324054 -0.050537445 -0.05442905 0.008527308 -0.014925266
0.01040312 0.026907274 0.01490952 0.041524056 0.0047927755 -0.07147387 -0.06546546 -0.09133029
0.02009194 -0.07201465 -0.04106281 -0.014748145 -0.09022847 0.00428645 -0.0005540409 -0.018620048
0.01974751 0.009820701 0.0070620514 0.038252145 -0.056420676 0.07636675 0.020693664 -0.06288512
-0.08783882 -0.08220285 -0.015734063 -0.010116161 -0.050614335 -0.06275105 0.006211139 0.012408436
-0.040692568 0.06458247 0.03534543 -0.03581325 -0.03744968 -0.090516016 0.061604332 0.07325946
-0.0029076529 0.0015843172 -0.0055136504 -0.06344956 -0.033833086 -0.030101415 0.061526045 0.04974536
-0.018528245 -0.0664336 -0.08139391 -0.0028993185 -0.0049217297 -0.08085031 0.04732516 0.058688104
-0.08284308 0.025416585 -0.086757824 0.0708797 -0.014721884 -0.06919812 0.0066001858 -0.015887573

m_branch.4.bias f4 [64]
00000000: 819e 493d 608b d1ba 7eac 61bd 0c16 c9bc
00000010: 797d c1bd a929 3e3b 2058 e0bc e899 913c
00000020: 7851 113d a552 b5bd f1b8 b3bc 32fe 963d
00000030: 09dc 4ebc 2901 32bd 5bb3 8abd 48e8 143d
00000040: a200 acbd 281a 27bd 1000 773c eaf5 0c3c
00000050: 57b1 723c b02d 6f3d fa65 853d c475 bc3d
00000060: 47f1 8fbd 5cef c2bc 2320 273d 2694 913d
00000070: 1dd9 4fbd 1056 1c3d 751b 643b ad47 253d
00000080: 38f7 123d 4e40 5bbd 259a 803d 5a17 5c3d
00000090: 6a80 443d e372 1dbd 58fb 093d d21d 353d
000000a0: 844e b53d e3aa 523d 2bf4 3ebd 5fc7 af3d
000000b0: 2fea 743d 3cb7 c4bc 0f4f 293d 3c50 b1bd
000000c0: d9a4 29bd 7d0c 293c e04c 94bc 47ed a1bd
000000d0: a525 443d d5af 81bd 82cc a9bc 93ea 65bd
000000e0: 5ccb a73c 08fa ddbc c9d1 5d3d 0372 3fbd
000000f0: cd65 74bd 8f8e d63d a210 dc3c eb64 a63d
0.049223427 -0.0015986972 -0.055096142 -0.024546646 -0.0944776 0.002901653 -0.027385771 0.017773584
0.035478085 -0.08853654 -0.021938773 0.07372703 -0.012625703 -0.043458138 -0.067724906 0.036354333
-0.08398558 -0.04079643 0.0150756985 0.008603552 0.014812789 0.05839318 0.06513591 0.092021495
-0.07028442 -0.023795776 0.040802132 0.07108335 -0.050744165 0.038168013 0.0034806405 0.04035156
0.035880297 -0.053528123 0.06279401 0.053733207 0.047974028 -0.038439643 0.033686966 0.044217892
0.08852866 0.0514325 -0.046619575 0.08582949 0.059793647 -0.024013154 0.04133516 -0.086578816
-0.041416977 0.010317919 -0.018103063 -0.07906585 0.047887463 -0.063323654 -0.0207274 -0.05613191
0.020482711 -0.027096763 0.054155145 -0.04673959 -0.059667397 0.1047641 0.0268634 0.08124717

c_branch.0.bias f4 [256]
00000000: 0000 0000 0000 0000 0000 0000 0000 0000
00000010: 0000 0000 0000 0000 0000 0000 0000 0000
00000020: 0000 0000 0000 0000 0000 0000 0000 0000
00000030: 0000 0000 0000 0000 0000 0000 0000 0000
00000040: 0000 0000 0000 0000 0000 0000 0000 0000
00000050: 0000 0000 0000 0000 0000 0000 0000 0000
00000060: 0000 0000 0000 0000 0000 0000 0000 0000
00000070: 0000 0000 0000 0000 0000 0000 0000 0000
00000080: 0000 0000 0000 0000 0000 0000 0000 0000
00000090: 0000 0000 0000 0000 0000 0000 0000 0000
000000a0: 0000 0000 0000 0000 0000 0000 0000 0000
000000b0: 0000 0000 0000 0000 0000 0000 0000 0000
000000c0: 0000 0000 0000 0000 0000 0000 0000 0000
000000d0: 0000 0000 0000 0000 0000 0000 0000 0000
000000e0: 0000 0000 0000 0000 0000 0000 0000 0000
000000f0: 0000 0000 0000 0000 0000 0000 0000 0000
00000100: 0000 0000 0000 0000 0000 0000 0000 0000
00000110: 0000 0000 0000 0000 0000 0000 0000 0000
00000120: 0000 0000 0000 0000 0000 0000 0000 0000
00000130: 0000 0000 0000 0000 0000 0000 0000 0000
00000140: 0000 0000 0000 0000 0000 0000 0000 0000
00000150: 0000 0000 0000 0000 0000 0000 0000 0000
00000160: 0000 0000 0000 0000 0000 0000 0000 0000
00000170: 0000 0000 0000 0000 0000 0000 0000 0000
00000180: 0000 0000 0000 0000 0000 0000 0000 0000
00000190: 0000 0000 0000 0000 0000 0000 0000 0000
000001a0: 0000 0000 0000 0000 0000 0000 0000 0000
000001b0: 0000 0000 0000 0000 0000 0000 0000 0000
000001c0: 0000 0000 0000 0000 0000 0000 0000 0000
000001d0: 0000 0000 0000 0000 0000 0000 0000 0000
000001e0: 0000 0000 0000 0000 0000 0000 0000 0000
000001f0: 0000 0000 0000 0000 0000 0000 0000 0000
00000200: 0000 0000 0000 0000 0000 0000 0000 0000
00000210: 0000 0000 0000 0000 0000 0000 0000 0000
00000220: 0000 0000 0000 0000 0000 0000 0000 0000
00000230: 0000 0000 0000 0000 0000 0000 0000 0000
00000240: 0000 0000 0000 0000 0000 0000 0000 0000
00000250: 0000 0000 0000 0000 0000 0000 0000 0000
00000260: 0000 0000 0000 0000 0000 0000 0000 0000
00000270: 0000 0000 0000 0000 0000 0000 0000 0000
00000280: 0000 0000 0000 0000 0000 0000 0000 0000
00000290: 0000 0000 0000 0000 0000 0000 0000 0000
000002a0: 0000 0000 0000 0000 0000 0000 0000 0000
000002b0: 0000 0000 0000 0000 0000 0000 0000 0000
000002c0: 0000 0000 0000 0000 0000 0000 0000 0000
000002d0: 0000 0000 0000 0000 0000 0000 0000 0000
000002e0: 0000 0000 0000 0000 0000 0000 0000 0000
000002f0: 0000 0000 0000 0000 0000 0000 0000 0000
00000300: 0000 0000 0000 0000 0000 0000 0000 0000
00000310: 0000 0000 0000 0000 0000 0000 0000 0000
00000320: 0000 0000 0000 0000 0000 0000 0000 0000
00000330: 0000 0000 0000 0000 0000 0000 0000 0000
00000340: 0000 0000 0000 0000 0000 0000 0000 0000
00000350: 0000 0000 0000 0000 0000 0000 0000 0000
00000360: 0000 0000 0000 0000 0000 0000 0000 0000
00000370: 0000 0000 0000 0000 0000 0000 0000 0000
00000380: 0000 0000 0000 0000 0000 0000 0000 0000
00000390: 0000 0000 0000 0000 0000 0000 0000 0000
000003a0: 0000 0000 0000 0000 0000 0000 0000 0000
000003b0: 0000 0000 0000 0000 0000 0000 0000 0000
000003c0: 0000 0000 0000 0000 0000 0000 0000 0000
000003d0: 0000 0000 0000 0000 0000 0000 0000 0000
000003e0: 0000 0000 0000 0000 0000 0000 0000 0000
000003f0: 0000 0000 0000 0000 0000 0000 0000 0000
0.0 0.0 0.0 0.0 0.0 0.0 0.0 0.0
0.0 0.0 0.0 0.0 0.0 0.0 0.0 0.0
0.0 0.0 0.0 0.0 0.0 0.0 0.0 0.0
0.0 0.0 0.0 0.0 0.0 0.0 0.0 0.0
0.0 0.0 0.0 0.0 0.0 0.0 0.0 0.0
0.0 0.0 0.0 0.0 0.0 0.0 0.0 0.0
0.0 0.0 0.0 0.0 0.0 0.0 0.0 0.0
0.0 0.0 0.0 0.0 0.0 0.0 0.0 0.0
0.0 0.0 0.0 0.0 0.0 0.0 0.0 0.0
0.0 0.0 0.0 0.0 0.0 0.0 0.0 0.0
0.0 0.0 0.0 0.0 0.0 0.0 0.0 0.0
0.0 0.0 0.0 0.0 0.0 0.0 0.0 0.0
0.0 0.0 0.0 0.0 0.0 0.0 0.0 0.0
0.0 0.0 0.0 0.0 0.0 0.0 0.0 0.0
0.0 0.0 0.0 0.0 0.0 0.0 0.0 0.0
0.0 0.0 0.0 0.0 0.0 0.0 0.0 0.0
0.0 0.0 0.0 0.0 0.0 0.0 0.0 0.0
0.0 0.0 0.0 0.0 0.0 0.0 0.0 0.0
0.0 0.0 0.0 0.0 0.0 0.0 0.0 0.0
0.0 0.0 0.0 0.0 0.0 0.0 0.0 0.0
0.0 0.0 0.0 0.0 0.0 0.0 0.0 0.0
0.0 0.0 0.0 0.0 0.0 0.0 0.0 0.0
0.0 0.0 0.0 0.0 0.0 0.0 0.0 0.0
0.0 0.0 0.0 0.0 0.0 0.0 0.0 0.0
0.0 0.0 0.0 0.0 0.0 0.0 0.0 0.0
0.0 0.0 0.0 0.0 0.0 0.0 0.0 0.0
0.0 0.0 0.0 0.0 0.0 0.0 0.0 0.0
0.0 0.0 0.0 0.0 0.0 0.0 0.0 0.0
0.0 0.0 0.0 0.0 0.0 0.0 0.0 0.0
0.0 0.0 0.0 0.0 0.0 0.0 0.0 0.0
0.0 0.0 0.0 0.0 0.0 0.0 0.0 0.0
0.0 0.0 0.0 0.0 0.0 0.0 0.0 0.0

c_branch.1.bn.weight f4 [256]
00000000: 0000 803f 0000 803f 0000 803f 0000 803f
00000010: 0000 803f 0000 803f 0000 803f 0000 803f
00000020: 0000 803f 0000 803f 0000 803f 0000 803f
00000030: 0000 803f 0000 803f 0000 803f 0000 803f
00000040: 0000 803f 0000 803f 0000 803f 0000 803f
00000050: 0000 803f 0000 803f 0000 803f 0000 803f
00000060: 0000 803f 0000 803f 0000 803f 0000 803f
00000070: 0000 803f 0000 803f 0000 803f 0000 803f
00000080: 0000 803f 0000 803f 0000 803f 0000 803f
00000090: 0000 803f 0000 803f 0000 803f 0000 803f
000000a0: 0000 803f 0000 803f 0000 803f 0000 803f
000000b0: 0000 803f 0000 803f 0000 803f 0000 803f
000000c0: 0000 803f 0000 803f 0000 803f 0000 803f
000000d0: 0000 803f 0000 803f 0000 803f 0000 803f
000000e0: 0000 803f 0000 803f 0000 803f 0000 803f
000000f0: 0000 803f 0000 803f 0000 803f 0000 803f
00000100: 0000 803f 0000 803f 0000 803f 0000 803f
00000110: 0000 803f 0000 803f 0000 803f 0000 803f
00000120: 0000 803f 0000 803f 0000 803f 0000 803f
00000130: 0000 803f 0000 803f 0000 803f 0000 803f
00000140: 0000 803f 0000 803f 0000 803f 0000 803f
00000150: 0000 803f 0000 803f 0000 803f 0000 803f
00000160: 0000 803f 0000 803f 0000 803f 0000 803f
00000170: 0000 803f 0000 803f 0000 803f 0000 803f
00000180: 0000 803f 0000 803f 0000 803f 0000 803f
00000190: 0000 803f 0000 803f 0000 803f 0000 803f
000001a0: 0000 803f 0000 803f 0000 803f 0000 803f
000001b0: 0000 803f 0000 803f 0000 803f 0000 803f
000001c0: 0000 803f 0000 803f 0000 803f 0000 803f
000001d0: 0000 803f 0000 803f 0000 803f 0000 803f
000001e0: 0000 803f 0000 803f 0000 803f 0000 803f
000001f0: 0000 803f 0000 803f 0000 803f 0000 803f
00000200: 0000 803f 0000 803f 0000 803f 0000 803f
00000210: 0000 803f 0000 803f 0000 803f 0000 803f
00000220: 0000 803f 0000 803f 0000 803f 0000 803f
00000230: 0000 803f 0000 803f 0000 803f 0000 803f
00000240: 0000 803f 0000 803f 0000 803f 0000 803f
00000250: 0000 803f 0000 803f 0000 803f 0000 803f
00000260: 0000 803f 0000 803f 0000 803f 0000 803f
00000270: 0000 803f 0000 803f 0000 803f 0000 803f
00000280: 0000 803f 0000 803f 0000 803f 0000 803f
00000290: 0000 803f 0000 803f 0000 803f 0000 803f
000002a0: 0000 803f 0000 803f 0000 803f 0000 803f
000002b0: 0000 803f 0000 803f 0000 803f 0000 803f
000002c0: 0000 803f 0000 803f 0000 803f 0000 803f
000002d0: 0000 803f 0000 803f 0000 803f 0000 803f
000002e0: 0000 803f 0000 803f 0000 803f 0000 803f
000002f0: 0000 803f 0000 803f 0000 803f 0000 803f
00000300: 0000 803f 0000 803f 0000 803f 0000 803f
00000310: 0000 803f 0000 803f 0000 803f 0000 803f
00000320: 0000 803f 0000 803f 0000 803f 0000 803f
00000330: 0000 803f 0000 803f 0000 803f 0000 803f
00000340: 0000 803f 0000 803f 0000 803f 0000 803f
00000350: 0000 803f 0000 803f 0000 803f 0000 803f
00000360: 0000 803f 0000 803f 0000 803f 0000 803f
00000370: 0000 803f 0000 803f 0000 803f 0000 803f
00000380: 0000 803f 0000 803f 0000 803f 0000 803f
00000390: 0000 803f 0000 803f 0000 803f 0000 803f
000003a0: 0000 803f 0000 803f 0000 803f 0000 803f
000003b0: 0000 803f 0000 803f 0000 803f 0000 803f
000003c0: 0000 803f 0000 803f 0000 803f 0000 803f
000003d0: 0000 803f 0000 803f 0000 803f 0000 803f
000003e0: 0000 803f 0000 803f 0000 803f 0000 803f
000003f0: 0000 803f 0000 803f 0000 803f 0000 803f
1.0 1.0 1.0 1.0 1.0 1.0 1.0 1.0
1.0 1.0 1.0 1.0 1.0 1.0 1.0 1.0
1.0 1.0 1.0 1.0 1.0 1.0 1.0 1.0
1.0 1.0 1.0 1.0 1.0 1.0 1.0 1.0
1.0 1.0 1.0 1.0 1.0 1.0 1.0 1.0
1.0 1.0 1.0 1.0 1.0 1.0 1.0 1.0
1.0 1.0 1.0 1.0 1.0 1.0 1.0 1.0
1.0 1.0 1.0 1.0 1.0 1.0 1.0 1.0
1.0 1.0 1.0 1.0 1.0 1.0 1.0 1.0
1.0 1.0 1.0 1.0 1.0 1.0 1.0 1.0
1.0 1.0 1.0 1.0 1.0 1.0 1.0 1.0
1.0 1.0 1.0 1.0 1.0 1.0 1.0 1.0
1.0 1.0 1.0 1.0 1.0 1.0 1.0 1.0
1.0 1.0 1.0 1.0 1.0 1.0 1.0 1.0
1.0 1.0 1.0 1.0 1.0 1.0 1.0 1.0
1.0 1.0 1.0 1.0 1.0 1.0 1.0 1.0
1.0 1.0 1.0 1.0 1.0 1.0 1.0 1.0
1.0 1.0 1.0 1.0 1.0 1.0 1.0 1.0
1.0 1.0 1.0 1.0 1.0 1.0 1.0 1.0
1.0 1.0 1.0 1.0 1.0 1.0 1.0 1.0
1.0 1.0 1.0 1.0 1.0 1.0 1.0 1.0
1.0 1.0 1.0 1.0 1.0 1.0 1.0 1.0
1.0 1.0 1.0 1.0 1.0 1.0 1.0 1.0
1.0 1.0 1.0 1.0 1.0 1.0 1.0 1.0
1.0 1.0 1.0 1.0 1.0 1.0 1.0 1.0
1.0 1.0 1.0 1.0 1.0 1.0 1.0 1.0
1.0 1.0 1.0 1.0 1.0 1.0 1.0 1.0
1.0 1.0 1.0 1.0 1.0 1.0 1.0 1.0
1.0 1.0 1.0 1.0 1.0 1.0 1.0 1.0
1.0 1.0 1.0 1.0 1.0 1.0 1.0 1.0
1.0 1.0 1.0 1.0 1.0 1.0 1.0 1.0
1.0 1.0 1.0 1.0 1.0 1.0 1.0 1.0

c_branch.1.bn.bias f4 [256]
00000000: 0000 0000 0000 0000 0000 0000 0000 0000
00000010: 0000 0000 0000 0000 0000 0000 0000 0000
00000020: 0000 0000 0000 0000 0000 0000 0000 0000
00000030: 0000 0000 0000 0000 0000 0000 0000 0000
00000040: 0000 0000 0000 0000 0000 0000 0000 0000
00000050: 0000 0000 0000 0000 0000 0000 0000 0000
00000060: 0000 0000 0000 0000 0000 0000 0000 0000
00000070: 0000 0000 0000 0000 0000 0000 0000 0000
00000080: 0000 0000 0000 0000 0000 0000 0000 0000
00000090: 0000 0000 0000 0000 0000 0000 0000 0000
000000a0: 0000 0000 0000 0000 0000 0000 0000 0000
000000b0: 0000 0000 0000 0000 0000 0000 0000 0000
000000c0: 0000 0000 0000 0000 0000 0000 0000 0000
000000d0: 0000 0000 0000 0000 0000 0000 0000 0000
000000e0: 0000 0000 0000 0000 0000 0000 0000 0000
000000f0: 0000 0000 0000 0000 0000 0000 0000 0000
00000100: 0000 0000 0000 0000 0000 0000 0000 0000
00000110: 0000 0000 0000 0000 0000 0000 0000 0000
00000120: 0000 0000 0000 0000 0000 0000 0000 0000
00000130: 0000 0000 0000 0000 0000 0000 0000 0000
00000140: 0000 0000 0000 0000 0000 0000 0000 0000
00000150: 0000 0000 0000 0000 0000 0000 0000 0000
00000160: 0000 0000 0000 0000 0000 0000 0000 0000
00000170: 0000 0000 0000 0000 0000 0000 0000 0000
00000180: 0000 0000 0000 0000 0000 0000 0000 0000
00000190: 0000 0000 0000 0000 0000 0000 0000 0000
000001a0: 0000 0000 0000 0000 0000 0000 0000 0000
000001b0: 0000 0000 0000 0000 0000 0000 0000 0000
000001c0: 0000 0000 0000 0000 0000 0000 0000 0000
000001d0: 0000 0000 0000 0000 0000 0000 0000 0000
000001e0: 0000 0000 0000 0000 0000 0000 0000 0000
000001f0: 0000 0000 0000 0000 0000 0000 0000 0000
00000200: 0000 0000 0000 0000 0000 0000 0000 0000
00000210: 0000 0000 0000 0000 0000 0000 0000 0000
00000220: 0000 0000 0000 0000 0000 0000 0000 0000
00000230: 0000 0000 0000 0000 0000 0000 0000 0000
00000240: 0000 0000 0000 0000 0000 0000 0000 0000
00000250: 0000 0000 0000 0000 0000 0000 0000 0000
00000260: 0000 0000 0000 0000 0000 0000 0000 0000
00000270: 0000 0000 0000 0000 0000 0000 0000 0000
00000280: 0000 0000 0000 0000 0000 0000 0000 0000
00000290: 0000 0000 0000 0000 0000 0000 0000 0000
000002a0: 0000 0000 0000 0000 0000 0000 0000 0000
000002b0: 0000 0000 0000 0000 0000 0000 0000 0000
000002c0: 0000 0000 0000 0000 0000 0000 0000 0000
000002d0: 0000 0000 0000 0000 0000 0000 0000 0000
000002e0: 0000 0000 0000 0000 0000 0000 0000 0000
000002f0: 0000 0000 0000 0000 0000 0000 0000 0000
00000300: 0000 0000 0000 0000 0000 0000 0000 0000
00000310: 0000 0000 0000 0000 0000 0000 0000 0000
00000320: 0000 0000 0000 0000 0000 0000 0000 0000
00000330: 0000 0000 0000 0000 0000 0000 0000 0000
00000340: 0000 0000 0000 0000 0000 0000 0000 0000
00000350: 0000 0000 0000 0000 0000 0000 0000 0000
00000360: 0000 0000 0000 0000 0000 0000 0000 0000
00000370: 0000 0000 0000 0000 0000 0000 0000 0000
00000380: 0000 0000 0000 0000 0000 0000 0000 0000
00000390: 0000 0000 0000 0000 0000 0000 0000 0000
000003a0: 0000 0000 0000 0000 0000 0000 0000 0000
000003b0: 0000 0000 0000 0000 0000 0000 0000 0000
000003c0: 0000 0000 0000 0000 0000 0000 0000 0000
000003d0: 0000 0000 0000 0000 0000 0000 0000 0000
000003e0: 0000 0000 0000 0000 0000 0000 0000 0000
000003f0: 0000 0000 0000 0000 0000 0000 0000 0000
0.0 0.0 0.0 0.0 0.0 0.0 0.0 0.0
0.0 0.0 0.0 0.0 0.0 0.0 0.0 0.0
0.0 0.0 0.0 0.0 0.0 0.0 0.0 0.0
0.0 0.0 0.0 0.0 0.0 0.0 0.0 0.0
0.0 0.0 0.0 0.0 0.0 0.0 0.0 0.0
0.0 0.0 0.0 0.0 0.0 0.0 0.0 0.0
0.0 0.0 0.0 0.0 0.0 0.0 0.0 0.0
0.0 0.0 0.0 0.0 0.0 0.0 0.0 0.0
0.0 0.0 0.0 0.0 0.0 0.0 0.0 0.0
0.0 0.0 0.0 0.0 0.0 0.0 0.0 0.0
0.0 0.0 0.0 0.0 0.0 0.0 0.0 0.0
0.0 0.0 0.0 0.0 0.0 0.0 0.0 0.0
0.0 0.0 0.0 0.0 0.0 0.0 0.0 0.0
0.0 0.0 0.0 0.0 0.0 0.0 0.0 0.0
0.0 0.0 0.0 0.0 0.0 0.0 0.0 0.0
0.0 0.0 0.0 0.0 0.0 0.0 0.0 0.0
0.0 0.0 0.0 0.0 0.0 0.0 0.0 0.0
0.0 0.0 0.0 0.0 0.0 0.0 0.0 0.0
0.0 0.0 0.0 0.0 0.0 0.0 0.0 0.0
0.0 0.0 0.0 0.0 0.0 0.0 0.0 0.0
0.0 0.0 0.0 0.0 0.0 0.0 0.0 0.0
0.0 0.0 0.0 0.0 0.0 0.0 0.0 0.0
0.0 0.0 0.0 0.0 0.0 0.0 0.0 0.0
0.0 0.0 0.0 0.0 0.0 0.0 0.0 0.0
0.0 0.0 0.0 0.0 0.0 0.0 0.0 0.0
0.0 0.0 0.0 0.0 0.0 0.0 0.0 0.0
0.0 0.0 0.0 0.0 0.0 0.0 0.0 0.0
0.0 0.0 0.0 0.0 0.0 0.0 0.0 0.0
0.0 0.0 0.0 0.0 0.0 0.0 0.0 0.0
0.0 0.0 0.0 0.0 0.0 0.0 0.0 0.0
0.0 0.0 0.0 0.0 0.0 0.0 0.0 0.0
0.0 0.0 0.0 0.0 0.0 0.0 0.0 0.0

c_branch.1.bn.running_mean f4 [256]
00000000: 0000 0000 0000 0000 0000 0000 0000 0000
00000010: 0000 0000 0000 0000 0000 0000 0000 0000
00000020: 0000 0000 0000 0000 0000 0000 0000 0000
00000030: 0000 0000 0000 0000 0000 0000 0000 0000
00000040: 0000 0000 0000 0000 0000 0000 0000 0000
00000050: 0000 0000 0000 0000 0000 0000 0000 0000
00000060: 0000 0000 0000 0000 0000 0000 0000 0000
00000070: 0000 0000 0000 0000 0000 0000 0000 0000
00000080: 0000 0000 0000 0000 0000 0000 0000 0000
00000090: 0000 0000 0000 0000 0000 0000 0000 0000
000000a0: 0000 0000 0000 0000 0000 0000 0000 0000
000000b0: 0000 0000 0000 0000 0000 0000 0000 0000
000000c0: 0000 0000 0000 0000 0000 0000 0000 0000
000000d0: 0000 0000 0000 0000 0000 0000 0000 0000
000000e0: 0000 0000 0000 0000 0000 0000 0000 0000
000000f0: 0000 0000 0000 0000 0000 0000 0000 0000
00000100: 0000 0000 0000 0000 0000 0000 0000 0000
00000110: 0000 0000 0000 0000 0000 0000 0000 0000
00000120: 0000 0000 0000 0000 0000 0000 0000 0000
00000130: 0000 0000 0000 0000 0000 0000 0000 0000
00000140: 0000 0000 0000 0000 0000 0000 0000 0000
00000150: 0000 0000 0000 0000 0000 0000 0000 0000
00000160: 0000 0000 0000 0000 0000 0000 0000 0000
00000170: 0000 0000 0000 0000 0000 0000 0000 0000
00000180: 0000 0000 0000 0000 0000 0000 0000 0000
00000190: 0000 0000 0000 0000 0000 0000 0000 0000
000001a0: 0000 0000 0000 0000 0000 0000 0000 0000
000001b0: 0000 0000 0000 0000 0000 0000 0000 0000
000001c0: 0000 0000 0000 0000 0000 0000 0000 0000
000001d0: 0000 0000 0000 0000 0000 0000 0000 0000
000001e0: 0000 0000 0000 0000 0000 0000 0000 0000
000001f0: 0000 0000 0000 0000 0000 0000 0000 0000
00000200: 0000 0000 0000 0000 0000 0000 0000 0000
00000210: 0000 0000 0000 0000 0000 0000 0000 0000
00000220: 0000 0000 0000 0000 0000 0000 0000 0000
00000230: 0000 0000 0000 0000 0000 0000 0000 0000
00000240: 0000 0000 0000 0000 0000 0000 0000 0000
00000250: 0000 0000 0000 0000 0000 0000 0000 0000
00000260: 0000 0000 0000 0000 0000 0000 0000 0000
00000270: 0000 0000 0000 0000 0000 0000 0000 0000
00000280: 0000 0000 0000 0000 0000 0000 0000 0000
00000290: 0000 0000 0000 0000 0000 0000 0000 0000
000002a0: 0000 0000 0000 0000 0000 0000 0000 0000
000002b0: 0000 0000 0000 0000 0000 0000 0000 0000
000002c0: 0000 0000 0000 0000 0000 0000 0000 0000
000002d0: 0000 0000 0000 0000 0000 0000 0000 0000
000002e0: 0000 0000 0000 0000 0000 0000 0000 0000
000002f0: 0000 0000 0000 0000 0000 0000 0000 0000
00000300: 0000 0000 0000 0000 0000 0000 0000 0000
00000310: 0000 0000 0000 0000 0000 0000 0000 0000
00000320: 0000 0000 0000 0000 0000 0000 0000 0000
00000330: 0000 0000 0000 0000 0000 0000 0000 0000
00000340: 0000 0000 0000 0000 0000 0000 0000 0000
00000350: 0000 0000 0000 0000 0000 0000 0000 0000
00000360: 0000 0000 0000 0000 0000 0000 0000 0000
00000370: 0000 0000 0000 0000 0000 0000 0000 0000
00000380: 0000 0000 0000 0000 0000 0000 0000 0000
00000390: 0000 0000 0000 0000 0000 0000 0000 0000
000003a0: 0000 0000 0000 0000 0000 0000 0000 0000
000003b0: 0000 0000 0000 0000 0000 0000 0000 0000
000003c0: 0000 0000 0000 0000 0000 0000 0000 0000
000003d0: 0000 0000 0000 0000 0000 0000 0000 0000
000003e0: 0000 0000 0000 0000 0000 0000 0000 0000
000003f0: 0000 0000 0000 0000 0000 0000 0000 0000
0.0 0.0 0.0 0.0 0.0 0.0 0.0 0.0
0.0 0.0 0.0 0.0 0.0 0.0 0.0 0.0
0.0 0.0 0.0 0.0 0.0 0.0 0.0 0.0
0.0 0.0 0.0 0.0 0.0 0.0 0.0 0.0
0.0 0.0 0.0 0.0 0.0 0.0 0.0 0.0
0.0 0.0 0.0 0.0 0.0 0.0 0.0 0.0
0.0 0.0 0.0 0.0 0.0 0.0 0.0 0.0
0.0 0.0 0.0 0.0 0.0 0.0 0.0 0.0
0.0 0.0 0.0 0.0 0.0 0.0 0.0 0.0
0.0 0.0 0.0 0.0 0.0 0.0 0.0 0.0
0.0 0.0 0.0 0.0 0.0 0.0 0.0 0.0
0.0 0.0 0.0 0.0 0.0 0.0 0.0 0.0
0.0 0.0 0.0 0.0 0.0 0.0 0.0 0.0
0.0 0.0 0.0 0.0 0.0 0.0 0.0 0.0
0.0 0.0 0.0 0.0 0.0 0.0 0.0 0.0
0.0 0.0 0.0 0.0 0.0 0.0 0.0 0.0
0.0 0.0 0.0 0.0 0.0 0.0 0.0 0.0
0.0 0.0 0.0 0.0 0.0 0.0 0.0 0.0
0.0 0.0 0.0 0.0 0.0 0.0 0.0 0.0
0.0 0.0 0.0 0.0 0.0 0.0 0.0 0.0
0.0 0.0 0.0 0.0 0.0 0.0 0.0 0.0
0.0 0.0 0.0 0.0 0.0 0.0 0.0 0.0
0.0 0.0 0.0 0.0 0.0 0.0 0.0 0.0
0.0 0.0 0.0 0.0 0.0 0.0 0.0 0.0
0.0 0.0 0.0 0.0 0.0 0.0 0.0 0.0
0.0 0.0 0.0 0.0 0.0 0.0 0.0 0.0
0.0 0.0 0.0 0.0 0.0 0.0 0.0 0.0
0.0 0.0 0.0 0.0 0.0 0.0 0.0 0.0
0.0 0.0 0.0 0.0 0.0 0.0 0.0 0.0
0.0 0.0 0.0 0.0 0.0 0.0 0.0 0.0
0.0 0.0 0.0 0.0 0.0 0.0 0.0 0.0
0.0 0.0 0.0 0.0 0.0 0.0 0.0 0.0
